models/best_models/novelty/model_randomstate_4_epochs_3000.pkl (torch_old, 6024 bytes, 18 tensors)

fc1.weight f4 [10, 30]
0.1635861 -0.3783942 0.21010122 0.08234995 0.12316316 0.013286695 0.181591 0.1314298
-0.21344456 -0.05561736 0.023237204 -0.1609015 0.02040021 -0.12913185 -0.01234123 0.015838675
0.020611294 -0.0672464 0.12188587 -0.2204664 -0.059343092 0.14012913 -0.07156328 0.03270455
0.0026162614 -0.067232884 0.010497214 0.0049330215 0.08748233 -0.11138096 -0.19146317 -0.24217793
-0.059349496 0.14940116 -0.09059714 0.06597459 0.036594667 0.025646249 -0.370012 0.32650563
-0.077289246 -0.18088369 0.06469763 -0.08554394 -0.16297276 0.3587029 0.14544365 -0.27742165
0.11506668 -0.14655992 0.1953616 0.02925226 -0.0321656 -0.045776177 -0.027350154 -0.2286948
0.02825184 -0.041619677 0.1866226 -0.53830206 0.056237314 0.3054899 -0.054297686 0.21442519
-0.065031625 0.06547075 0.042229615 0.06222421 0.1920435 0.0021176739 -0.011868264 0.12402924
-0.0226953 0.10066924 0.060277715 -0.112348765 -0.05506793 0.12058319 -0.07142407 0.07313979
0.0068786694 -0.07117597 -0.013577829 -0.014748917 0.03457237 0.07158841 -0.016634196 -0.0016592662
-0.31010032 -0.2942994 0.32748583 -0.05046212 0.30396485 0.15751405 -0.15652926 0.056420363
0.11021437 0.21619806 0.013675185 0.0061199376 0.07414108 -0.031683452 0.012240906 -0.010450851
0.09442123 -0.091908544 -0.0026897106 0.0038547223 0.049706556 -0.117671035 0.14365226 -0.04873835
-0.109823614 0.031983428 0.0076949797 0.007983277 -0.036414403 0.010376383 -0.10589531 -0.25003198
0.11620713 0.2885507 -0.059901338 0.15656433 -0.13790005 0.10644442 0.09952295 0.020942213
0.18659717 -0.029973475 -0.00074028375 0.11582859 -0.023509802 0.09844207 0.06389619 -0.10070619
-0.06081603 0.115467384 -0.069889344 0.038669337 0.0040759114 -0.076000735 -0.05188866 -0.01365165
0.03650898 0.06832127 0.0039937957 -0.020980828 -0.4306719 -0.18893157 0.43346187 -0.14749259
-0.13564266 0.13429546 -0.041586526 0.0036039276 -0.058380008 0.2755424 0.06671424 0.08895544
0.07006349 0.01828658 0.027380481 -0.021138664 0.14934304 -0.0005458263 0.0014553543 -0.04996245
0.06539405 0.07127084 -0.38295278 -0.04913238 -0.113028206 0.05338542 0.4602136 0.06488404
-0.22418332 0.017652566 0.06905908 0.3509047 -0.07513428 -0.48801574 0.02442685 -0.18413083
0.013429144 -0.07119105 0.07555506 0.08083582 -0.24606271 0.018420292 0.026216207 -0.19843037
0.050605677 -0.16017152 -0.0754947 0.17362663 0.03676286 -0.19957192 0.12328913 -0.1559297
0.030676823 0.08161181 -0.015894469 0.015687391 -0.008322477 -0.1008465 0.013580399 -0.021628147
0.2942378 0.31442598 -0.233859 -0.2014358 -0.20299785 -0.29412785 -0.033424895 -0.058842346
-0.26423788 -0.36754608 -0.1051864 -0.02008572 0.005504513 -0.04827682 0.005485196 -0.029949157
-0.08044312 0.16096611 0.054935995 -0.14886077 0.0020163162 0.11659999 -0.06420407 0.031414587
0.04689367 0.03262858 -0.0054507577 -0.08681041 -0.025427777 0.025756571 -0.010629501 -0.022272075
-0.26321474 -0.33780912 -0.26099735 -0.5844254 -0.09488693 -0.12296467 -0.2638709 -0.38838232
-0.11684786 -0.09054529 0.04124357 -0.10009373 0.0154072875 -0.087516196 -0.09540104 0.19623794
00000000: 1d83 273e e2bc c1be c624 573e 17a7 a83d
00000010: f83c fc3d 70b0 593c fef2 393e 8995 063e
00000020: 3691 5abe 07cf 63bd f35b be3c 5dc3 24be
00000030: 571e a73c 243b 04be df32 4abc 1cc0 813c
00000040: 04d9 a83c 7bb8 89bd 4d9f f93d f2c1 61be
00000050: be11 73bd 037e 0f3e c58f 92bd 35f5 053d
00000060: 9575 2b3b 65b1 89bd 82fc 2b3c 2fa5 a13b
00000070: f029 b33d b31b e4bd ec0e 44be 7efd 77be
00000080: 7518 73bd 9efc 183e fe8a b9bd b01d 873d
00000090: 4ae4 153d 1518 d23c 3672 bdbe bf2b a73e
000000a0: d349 9ebd 9339 39be 3180 843d a931 afbd
000000b0: 55e2 26be e8a7 b73e 2eef 143e 360a 8ebe
000000c0: 14a8 eb3d ce13 16be df0c 483e 70a2 ef3c
000000d0: 14c0 03bd cd7f 3bbd 6e0d e0bc f82e 6abe
000000e0: 6770 e73c 6579 2abd ff19 3f3e 2ace 09bf
000000f0: 1959 663d 2c69 9c3e 4067 5ebd 4792 5b3e
00000100: 4d2f 85bd 8715 863d f6f8 2c3d d0de 7e3d
00000110: 0da7 443e acc8 0a3b 1b73 42bc 0b03 fe3d
00000120: 7eeb b9bc ad2b ce3d c4e5 763d 1c17 e6bd
00000130: e98e 61bd 52f4 f63d c846 92bd 50ca 953d
00000140: 7666 e13b b5c4 91bd 8b75 5ebc 71a5 71bc
00000150: c29b 0d3d f29c 923d 7044 88bc bc7b d9ba
00000160: 78c5 9ebe 69ae 96be 39ac a73e 5eb1 4ebd
00000170: 48a1 9b3e 5d4b 213e 3549 20be 0a19 673d
00000180: 12b8 e13d 0663 5d3e e20d 603c c289 c83b
00000190: 47d7 973d 82c6 01bd 158e 483c 0c3a 2bbc
000001a0: eb5f c13d 8c3a bcbd db45 30bb 829f 7c3b
000001b0: 1a99 4b3d 83fd f0bd 9419 133e dda1 47bd
000001c0: 34eb e0bd 0e01 033d 2b26 fc3b 4acc 023c
000001d0: 4527 15bd b401 2a3c a4df d8bd 3104 80be
000001e0: 01fe ed3d ebbc 933e 1b5b 75bd 6652 203e
000001f0: ac35 0dbe 88ff d93d b0d2 cb3d 018f ab3c
00000200: 5413 3f3e ef8a f5bc 9a0f 42ba 8a37 ed3d
00000210: a197 c0bc ff9b c93d 01dc 823d 0c3f cebd
00000220: 3b1a 79bd 2a7a ec3d 2522 8fbd bd63 1e3d
00000230: 398f 853b 46a6 9bbd 3489 54bd 2cab 5fbc
00000240: 718a 153d 06ec 8b3d 63de 823b fcdf abbc
00000250: 0781 dcbe 4777 41be b7ee dd3e 4c08 17be
00000260: e9e5 0abe c084 093e a256 2abd df2f 6c3b
00000270: e01f 6fbd e513 8d3e 7aa1 883d 452e b63d
00000280: 727d 8f3d bdcd 953c 084d e03c fe2a adbc
00000290: 62ed 183e c815 0fba 96c1 be3a 6da5 4cbd
000002a0: 51ed 853d 72f6 913d 6312 c4be 093f 49bd
000002b0: 557b e7bd acaa 5a3d 1ea1 eb3e ece1 843d
000002c0: 5090 65be 1d9c 903c d96e 8d3d c8a9 b33e
000002d0: 00e0 99bd 33dd f9be d11a c83c cb8c 3cbe
000002e0: ea05 5c3c 9dcc 91bd 9cbc 9a3d 408d a53d
000002f0: ddf7 7bbe 27e6 963c 5fc3 d63c 5531 4bbe
00000300: e647 4f3d 0104 24be f79c 9abd 2ecb 313e
00000310: a794 163d 955c 4cbe 037f fc3d 09ac 1fbe
00000320: f64d fb3c 1824 a73d 1e35 82bc d882 803c
00000330: 005b 08bc 9c88 cebd 5280 5e3c 832d b1bc
00000340: 56a6 963e 71fc a03e bc78 6fbe 3045 4ebe
00000350: abde 4fbe ed97 96be 8be8 08bd ac04 71bd
00000360: 304a 87be 002f bcbe f86b d7bd cf8a a4bc
00000370: 345f b43b eabd 45bd 29bd b33b ef57 f5bc
00000380: 5dbf a4bd 4dd4 243e 9104 613d f56e 18be
00000390: 2c24 043b facb ee3d 6c7d 83bd 95ac 003d
000003a0: 9413 403d 8ca5 053d 459c b2bb a8c9 b1bd
000003b0: ea4d d0bc 72ff d23c 5c27 2ebc ed73 b6bc
000003c0: 15c4 86be 51f5 acbe 72a1 85be e79c 15bf
000003d0: 1454 c2bd e7d4 fbbd 161a 87be 0cda c6be
000003e0: ee4d efbd cf6f b9bd 05ef 283d f1fd ccbd
000003f0: d96e 7c3c b13b b3bd 9f61 c3bd 99f2 483e

fc1.bias f4 [10]
0.23538013 0.42329094 0.4029792 0.5586445 0.3281101 -0.3102381 -0.22116205 0.19939353
0.05665893 -0.4519005
00000000: 7d07 713e 97b9 d83e 4a53 ce3e 5303 0f3f
00000010: 0cfe a73e 87d7 9ebe 4e78 62be d12d 4c3e
00000020: 3213 683d 815f e7be

fc21.weight f4 [2, 10]
0.18774813 0.26052135 0.8188131 0.01846436 -0.35025856 0.12133679 -0.50907606 -0.1821198
0.42591614 0.20470068 -0.059050586 -0.011093916 0.110094324 0.27510896 -0.15841363 0.677173
0.283974 -0.38889596 0.21283162 -0.21087345
00000000: 0c41 403e 0e63 853e bc9d 513f 9242 973c
00000010: 1755 b3be 6c7f f83d cf52 02bf 9d7d 3abe
00000020: ae11 da3e 0e9d 513e 07df 71bd 42c3 35bc
00000030: 2279 e13d 15db 8c3e 2f37 22be 365b 2d3f
00000040: 0a65 913e 5f1d c7be 88f0 593e 36ef 57be

fc21.bias f4 [2]
0.39521495 -0.24513178
00000000: 9d59 ca3e d303 7bbe

fc22.weight f4 [2, 10]
-0.08034881 0.31649646 0.53618884 0.035187542 -0.38234696 0.14908929 -1.2430404 -0.32342708
0.11943441 1.2363198 -0.46963087 0.101281576 -0.13349232 0.38811105 -0.17358054 0.4467602
-0.160128 -0.21059479 -0.12374986 0.3871244
00000000: eb8d a4bd d30b a23e ac43 093f d020 103d
00000010: fbc2 c3be ddaa 183e f31b 9fbf 3c98 a5be
00000020: 079a f43d ba3f 9e3f 7573 f0be b76c cf3d
00000030: 36b2 08be 7eb6 c63e 19bf 31be c1bd e43e
00000040: 98f8 23be 29a6 57be 9170 fdbd 2b35 c63e

fc22.bias f4 [2]
-0.033762183 -1.3631035
00000000: 374a 0abd 2d7a aebf

batchnorm1.weight f4 [10]
1.0377133 1.0127561 1.3993982 0.9082267 1.5476528 1.0602435 2.054092 1.2029881
1.2539065 1.6030455
00000000: cad3 843f fea1 813f 7b1f b33f 8c81 683f
00000010: 7d19 c63f 0fb6 873f 3e76 0340 84fb 993f
00000020: 0280 a03f 9830 cd3f

batchnorm1.bias f4 [10]
-0.013762181 0.061412487 0.05257741 0.015804717 -0.07325936 0.009424522 1.018854 0.10981958
0.0497318 0.19645429
00000000: c57a 61bc a98b 7b3d 695b 573d e578 813c
00000010: 0109 96bd 4f69 1a3c cf69 823f 17e9 e03d
00000020: 92b3 4b3d 502b 493e

batchnorm1.running_mean f4 [10]
0.50231487 0.9957121 0.8045761 0.92607665 0.6612098 0.14828187 0.22648168 0.40911382
0.5050095 0.0975676
00000000: b597 003f fde6 7e3f b3f8 4d3f 5c13 6d3f
00000010: 0c45 293f 34d7 173e d0ea 673e 5e77 d13e
00000020: 4d48 013f 86d1 c73d

batchnorm1.running_var f4 [10]
0.20567147 1.0232676 0.28325146 0.32101884 0.20227557 0.03840856 0.57415575 0.6778227
1.0646194 0.19243737
00000000: 8b9b 523e 6ffa 823f 5606 913e 955c a43e
00000010: 5421 4f3e 4b52 1d3d dffb 123f ca85 2d3f
00000020: 7345 883f 4d0e 453e

fc3.weight f4 [10, 2]
-0.11397302 -0.54119664 -0.08813818 0.90764934 -0.7309469 0.115762845 -0.4670406 0.1150374
0.1264955 -0.70417374 -0.24665116 -0.19990335 -0.106132835 -0.4892445 -0.16695677 0.021119894
0.024625419 0.1860399 -0.037850615 0.8816509
00000000: b06a e9bd dd8b 0abf ca81 b4bd b55b 683f
00000010: 561f 3bbf 1215 ed3d f21f efbe ba98 eb3d
00000020: 0988 013e bb44 34bf 1f92 7cbe 77b3 4cbe
00000030: 2c5c d9bd 417e fabe b7f6 2abe a103 ad3c
00000040: 3fbb c93c 3e81 3e3e 3f09 1bbd e0b3 613f

fc3.bias f4 [10]
-0.4479561 -0.23082086 -0.49517354 -0.07569926 -0.5340524 -0.3138737 0.23104033 2.6487358
-0.29041067 -0.058936786
00000000: 805a e5be 4e5c 6cbe 6387 fdbe 3708 9bbd
00000010: a8b7 08bf 0eb4 a0be d695 6c3e e384 2940
00000020: b5b0 94be b367 71bd

batchnorm3.weight f4 [10]
1.2899935 2.1054583 1.4308922 1.1026051 1.3970459 1.2079134 1.2233601 1.3479925
0.88898855 2.5773227
00000000: 821e a53f d4bf 0640 7a27 b73f 2a22 8d3f
00000010: 66d2 b23f e89c 9a3f 1097 9c3f 058b ac3f
00000020: c194 633f dbf2 2440

batchnorm3.bias f4 [10]
0.040506754 0.2689765 0.06396436 -0.046867706 -0.14810914 -0.39390618 0.08212231 0.10235494
0.5055385 -0.056319017
00000000: 69ea 253d 4ab7 893e bfff 823d 5af8 3fbd
00000010: eca9 17be 12ae c9be be2f a83d 779f d13d
00000020: f96a 013f c5ae 66bd

batchnorm3.running_mean f4 [10]
0.01213034 0.3379974 0.026001455 0.06564632 0.035836905 0.0039000998 0.23268816 2.5986755
0.0077128885 0.41473302
00000000: 55be 463c ff0d ad3e 0101 d53c 9471 863d
00000010: b8c9 123d d198 7f3b ce45 6e3e b350 2640
00000020: 66bc fc3b e357 d43e

batchnorm3.running_var f4 [10]
0.006895325 0.24903761 0.01974728 0.02394749 0.031296693 0.0009904556 0.071761556 0.019227175
0.0015076161 0.30400884
00000000: 2ef2 e13b b703 7f3e 0cc5 a13c 872d c43c
00000010: f630 003d 2dd2 813a b9f7 923d 4f82 9d3c
00000020: 349b c53a 0ca7 9b3e

fc4.weight f4 [30, 10]
0.516989 -1.4433082 -0.37631935 -0.068139225 -0.741197 -0.5280597 -0.08937889 0.13779587
-0.34114233 1.6095935 -0.2914441 0.6921339 -0.22554494 -0.29446593 0.3345078 -0.41700208
0.26190537 -0.3425236 -0.039564345 -0.62452364 0.6143267 0.45057553 -0.40257987 0.19503745
-0.45252016 0.035482246 -0.95871276 0.19575554 0.59664965 -1.0948901 0.6269732 -0.2497223
0.4292391 0.112965755 -0.74388456 0.04597493 -0.36373055 -1.0258235 -0.11005616 0.14425352
0.26357552 0.22190452 -0.36631677 -0.136216 -0.7928238 0.59484464 0.89872515 -0.3715075
0.0033228267 0.07682726 0.37320262 0.038510524 0.27614814 0.21441492 -0.23911083 -0.5500258
-0.08786322 -0.22830224 0.7999258 -0.17403856 -0.15755203 0.41028097 0.9111172 -0.50774735
-0.3981988 -0.6357983 0.4072357 -0.09370402 -0.174202 -0.26599723 -0.9507968 0.045678254
-0.2653046 0.16895713 0.26281893 0.36471125 -0.051673103 -0.08501287 0.21875717 -0.11096789
-0.43897727 -0.650659 0.39335087 -0.9663776 0.57076526 0.2180466 -0.122461766 0.40152806
0.03190801 0.5787635 -0.32734728 0.090535484 -0.52413744 0.83742464 0.2579734 0.27960184
-0.062750585 -0.37431344 -0.11592938 -0.024389924 -0.060837924 -0.1562243 0.040873792 -0.18975323
0.19608885 0.056566358 -0.29661235 0.2511324 0.16464677 0.014322239 -0.06441054 -0.33778498
0.23300458 -0.47640413 0.20477644 0.05745928 -0.037683785 0.12597421 -0.040611543 0.3075809
-0.05963666 0.30896932 -0.031346858 0.051631015 0.041911587 0.052280452 -0.056859806 -0.015171801
-0.047568336 -0.2437588 0.0785619 0.08886145 0.12124363 -0.16654392 0.06069448 -0.020230716
-0.1025659 -0.007024583 0.0033959101 -0.08608313 -0.034835566 0.52340364 0.11434511 -0.3714761
0.24749893 0.120539255 -0.46681586 0.24441887 0.1900395 -0.55896956 -0.013283733 -0.4931622
-0.114989124 0.3345076 -0.04252544 -0.016633317 0.23658063 -0.11795648 -0.036408827 0.48141348
0.020262504 0.3651094 -0.14728539 0.24401784 0.09492575 0.019805815 -0.16149485 -0.039602738
0.016830653 -0.35684353 0.007328735 0.29328287 0.18976164 -0.32041606 0.01398318 -0.030358506
-0.00793355 0.033207707 -0.060529307 -0.23066254 0.08096282 1.3577611 -0.13189839 0.07377148
-0.018166361 0.093092166 -0.30141878 0.005122104 -0.1012856 -1.1668503 0.03490946 0.21135345
0.0749262 0.13561761 0.07545987 -0.20205452 -0.056501698 -0.03999543 -0.012591804 -0.1984765
-0.010136333 0.01159469 -0.023693148 0.13108623 -0.05894641 -0.068117306 0.062737614 -0.05719741
-0.028999306 -0.0022834279 0.07005964 0.11102774 -0.15454419 0.26260027 -0.1049129 0.0008527411
0.031079195 -0.101652734 -0.017777568 -0.10995473 -3.5199417e-05 -0.14367226 -0.050704695 0.022959238
0.031767793 0.076586924 0.0148136895 0.003145214 0.0031157779 0.1257589 -0.0066210204 0.012726917
0.0010215221 -0.032096237 0.024647107 0.016517501 -0.043383274 0.035008542 0.21287277 -0.046439104
-0.067993514 -0.63131356 -0.04101869 0.064790405 0.07429463 0.043147173 0.03369114 0.00096121477
0.09746914 0.53444356 -0.029458955 0.077995755 0.087420665 -0.2152956 0.0787925 0.018471202
00000000: 6459 043f 53be b8bf eeac c0be 948c 8bbd
00000010: 16bf 3dbf ec2e 07bf 480c b7bd 5c1a 0d3e
00000020: 35aa aebe 2907 ce3f 2938 95be b02f 313f
00000030: 41f5 66be 3dc4 96be 9b44 ab3e 4c81 d5be
00000040: 7618 863e 415f afbe 390e 22bd c8e0 1fbf
00000050: 8444 1d3f d6b1 e63e f31e cebe e6b7 473e
00000060: b9b0 e7be d555 113d 336e 75bf 2474 483e
00000070: 08be 183f 5c25 8cbf 5181 203f 34b7 7fbe
00000080: 3ac5 db3e 975a e73d 386f 3ebf 3550 3c3d
00000090: e43a babe 2f4e 83bf 2065 e1bd 32b7 133e
000000a0: 5ff3 863e f03a 633e df8d bbbe 357c 0bbe
000000b0: 80f6 4abf bd47 183f da12 663f 3b36 bebe
000000c0: c8c3 593b 9c57 9d3d 6a14 bf3e 36bd 1d3d
000000d0: 4a63 8d3e 968f 5b3e 78d9 74be 7ece 0cbf
000000e0: a2f1 b3bd 10c8 69be f0c7 4c3f 2a37 32be
000000f0: 5255 21be 5910 d23e fa3e 693f bbfb 01bf
00000100: b7e0 cbbe adc3 22bf 3381 d03e e5e7 bfbd
00000110: 0262 32be ca30 88be 6b67 73bf 1f19 3b3d
00000120: 01d6 87be 1903 2d3e 3490 863e 6fbb ba3e
00000130: 2da7 53bd 3a1b aebd e101 603e 2243 e3bd
00000140: a1c1 e0be 9791 26bf 4965 c93e 8664 77bf
00000150: ac1d 123f 9c47 5f3e 3ccd fabd 1695 cd3e
00000160: f9b1 023d d829 143f 109a a7be ab6a b93d
00000170: df2d 06bf 7661 563f 1715 843e f927 8f3e
00000180: 6183 80bd 03a6 bfbe 626c edbd 61cd c7bc
00000190: 3031 79bd 43f9 1fbe 476b 273d ac4e 42be
000001a0: 84cb 483e 20b2 673d 93dd 97be 6d94 803e
000001b0: 2a99 283e d3a7 6a3c ace9 83bd 27f2 acbe
000001c0: c198 6e3e 3eeb f3be eab0 513e 6c5a 6b3d
000001d0: 505a 1abd 62ff 003e 4a58 26bd 3e7b 9d3e
000001e0: 9245 74bd 3a31 9e3e 9065 00bd 0b7b 533d
000001f0: 7cab 2b3d 0724 563d d4e5 68bd 2593 78bc
00000200: 04d7 42bd e89b 79be 10e5 a03d fefc b53d
00000210: 954e f83d 7d8a 2abe c69a 783d e3ba a5bc
00000220: 120e d2bd 792e e6bb eb8d 5e3b 5a4c b0bd
00000230: bdaf 0ebd c8fd 053f c52d ea3d 1e32 bebe
00000240: 5c70 7d3e 49dd f63d 7d02 efbe f148 7a3e
00000250: b799 423e a118 0fbf 04a4 59bc c27f fcbe
00000260: 6b7f ebbd 9544 ab3e 282f 2ebd 9842 88bc
00000270: 3142 723e 2b93 f1bd 6c21 15bd d47b f63e
00000280: 8dfd a53c 9fef ba3e fbd1 16be d0df 793e
00000290: 6e68 c23d ce3f a23c e85e 25be 7b36 22bd
000002a0: 70e0 893c 32b4 b6be e325 f03b 2c29 963e
000002b0: e050 423e 930d a4be b519 653c 67b2 f8bc
000002c0: b8fb 01bc ce04 083d 94ed 77bd cd32 6cbe
000002d0: d6cf a53d 1ecb ad3f 5f10 07be 8015 973d
000002e0: 9fd1 94bc 1ba7 be3d 9053 9abe 53d7 a73b
000002f0: d36e cfbd 5a5b 95bf 39fd 0e3d 0a6d 583e
00000300: e872 993d 58df 0a3e b48a 9a3d 61e7 4ebe
00000310: 536e 67bd 3fd2 23bd db4d 4ebc 6c3d 4bbe
00000320: dd12 26bc a8f7 3d3c 2218 c2bc 783b 063e
00000330: ca71 71bd 1681 8bbd 947c 803d d547 6abd
00000340: f48f edbc 90a5 15bb 6e7b 8f3d 8362 e33d
00000350: d540 1ebe 8b73 863e 93dc d6bd 7d8a 5f3a
00000360: cc99 fe3c 4f2f d0bd 43a2 91bc f22f e1bd
00000370: 16a3 13b8 d21e 13be baaf 4fbd 0315 bc3c
00000380: f21e 023d 9bd9 9c3d 1eb5 723c ef1f 4e3b
00000390: 1432 4c3b f1c6 003e 25f5 d8bb 8f84 503c
000003a0: 98e4 853a 5877 03bd bbe8 c93c b64f 873c
000003b0: a9b2 31bd 1e65 0f3d 52fb 593e ee36 3ebd
000003c0: 2f40 8bbd c49d 21bf 3703 28bd d5b0 843d
000003d0: c827 983d 17bb 303d b9ff 093d 08fa 7b3a
000003e0: e79d c73d 4bd1 083f e853 f1bc 3dbc 9f3d
000003f0: 9b09 b33d 7376 5cbe f65d a13d eb50 973c

fc4.bias f4 [30]
0.33750677 -0.29637673 -0.46404317 0.11705284 0.03886458 -0.6682188 -0.4366236 0.12771834
0.2823946 0.32343778 -0.007963167 0.14575776 -0.035253957 -0.027525023 -0.19759001 0.19232304
-0.057580628 -0.09954963 -0.3149684 -0.122194156 -0.017351525 -0.013901425 0.082726054 -0.10582492
0.1848495 -0.030145848 -0.011698886 -0.0033372203 -0.26288435 -1.0000573
00000000: b0cd ac3e b1be 97be 1197 edbe 66b9 ef3d
00000010: 7730 1f3d 6310 2bbf 218d dfbe 99c8 023e
00000020: 0696 903e a399 a53e f177 02bc 8641 153e
00000030: 7466 10bd 287c e1bc 0955 4abe 55f0 443e
00000040: aad9 6bbd ade0 cbbd 8a43 a1be ee40 fabd
00000050: c924 8ebc cdc2 63bc 476c a93d bcba d8bd
00000060: 3049 3d3e 6df4 f6bc afac 3fbc 44b5 5abb
00000070: c798 86be e101 80bf
