models/best_models/novelty/model_randomstate_1_epochs_3000.pkl (torch_old, 6026 bytes, 18 tensors)

fc1.weight f4 [10, 30]
000000 36 44 fd bd a6 63 5a be 08 f5 ae 3d 60 1b 40 3d
       -0.12366526 -0.21327075 0.0854283 0.046901107
000010 ea 2a 83 3c c5 be ce 3b 35 88 5e 3e 01 e3 c3 bd
       0.016011674 0.0063093626 0.21731646 -0.09564782
000020 b2 c7 0c bd 35 02 e3 bd 93 1f ce 3c d4 53 5d bc
       -0.03437013 -0.11084405 0.02516154 -0.013508756
000030 80 1b f1 bc 4a 48 01 bd ee e4 c2 bc 4f 9c 43 bd
       -0.029432058 -0.03156308 -0.023790803 -0.04775649
000040 42 92 f2 bc 79 87 6f bc c7 d1 2e 3d 87 1f 6d bd
       -0.029610757 -0.014619702 0.042680528 -0.057891395
000050 db 41 15 3a 78 25 83 3d 76 d4 6a 3a f3 ad 0f be
       0.0005693712 0.06403631 0.0008958051 -0.140312
000060 d9 ca 0e be 76 73 42 3d 74 a3 3d bc 71 5d 6d 3c
       -0.13944568 0.047473393 -0.011574615 0.01448761
000070 29 eb 01 3e 0c 6a 0f bc 17 c5 8d be 7b c7 fa 3d
       0.12687363 -0.008753311 -0.2768943 0.12245079
000080 11 c2 be bd ce 79 6a bd e4 2b 92 be 5b 3c c6 bd
       -0.09314359 -0.05724507 -0.2854911 -0.09679481
000090 67 2a 09 bc 63 b8 a8 bc a4 04 ac 3d 9c fe 16 3e
       -0.008371926 -0.020595735 0.08399323 0.14745563
0000a0 d9 1a 33 bb f4 80 4d 3d b7 ef 18 ba 1e 24 08 3c
       -0.0027329235 0.050171807 -0.000583406 0.008309392
0000b0 e1 c6 54 bd 99 e3 92 3c 53 59 0c 3d c9 65 50 3b
       -0.05194748 0.017930793 0.034264874 0.003179895
0000c0 35 2f 22 bd cd ad 8d 3d 85 42 f7 3c ed c8 52 3c
       -0.0395958 0.069179155 0.030183086 0.012865287
0000d0 ca 3f e0 3a 34 d3 cd bd 33 7a 51 3d ec ca 18 3c
       0.0017108854 -0.100500494 0.05114193 0.009325724
0000e0 cf 5f bf bc 84 33 3e be 3a ba 7f 3e 82 de 05 3c
       -0.023361115 -0.18574339 0.24973384 0.008170726
0000f0 0f d8 28 bd 88 85 aa 3c 73 90 30 bd 50 99 56 bd
       -0.041221675 0.020815626 -0.043106508 -0.052392304
000100 95 72 33 3e 99 38 5a 3e c6 19 e2 bc 9b 1e b2 3d
       0.17524178 0.21310653 -0.02760018 0.08697244
000110 c2 b0 ed bc 4b 65 bc bc 6a 71 e7 bc b9 6b 5a bc
       -0.029014949 -0.022997519 -0.028252322 -0.013331347
000120 e6 2b 41 bc 22 ec f2 3c 1f d1 c9 3c e1 1e 88 bb
       -0.011790251 0.029653613 0.02463585 -0.0041540717
000130 57 e0 40 3c 43 0a 81 3c ba 28 c3 3b bd e0 98 3d
       0.011772237 0.015751963 0.0059557827 0.074647404
000140 16 0b a0 3c ee d5 9d bc fa 43 69 3b 78 37 03 3e
       0.019536536 -0.019267049 0.0035593496 0.12814128
000150 b1 c3 ef bc 8f a6 84 3c a7 70 9f bd 41 b9 f3 3b
       -0.029268118 0.016192703 -0.077851586 0.0074378555
000160 7f e0 a1 3e ae 56 0d 3e ac c3 0e bd 22 2a 80 3d
       0.3161659 0.13802597 -0.034854576 0.06258036
000170 e6 27 58 3d d3 d3 82 be de 1a 77 be df c7 7e be
       0.052772425 -0.25552234 -0.24131343 -0.24880932
000180 c3 22 63 be 32 ca ba bd ba 51 fa 3c e1 5b bc 3e
       -0.2218123 -0.09120597 0.030556548 0.36788848
000190 a7 bc 0c 3d f8 94 11 bd 78 2f 57 3c 41 f8 b7 bd
       0.0343596 -0.03554246 0.013133876 -0.089828975
0001a0 90 a2 5e bd 39 a9 b7 bd 4b 13 ba 3d 14 ed 08 3c
       -0.05435425 -0.089678235 0.09085711 0.008357305
0001b0 d7 60 1c bd c7 43 9d 3e a9 c0 f0 3d d2 29 d3 39
       -0.03817829 0.30715773 0.11755497 0.00040276215
0001c0 4c 35 aa 3d 4f 33 83 be 3f 22 9b 3d 3d ff 50 bd
       0.08310947 -0.25625083 0.07574891 -0.051024664
0001d0 18 15 0c be b4 e0 02 bd eb 6f 71 be 79 8e 23 3d
       -0.13679922 -0.031952575 -0.2357785 0.039930794
0001e0 86 d2 58 3e c0 2e 26 be 5a 5f f4 3c 9c 22 7a 3d
       0.21174058 -0.16228771 0.029830623 0.061068162
0001f0 2d 1f f7 3d c3 4a 4b bd e5 35 ae bd 51 b7 a8 3c
       0.12066493 -0.049631845 -0.08506373 0.020595225
000200 c4 48 8d bc e6 fd 31 bd 5d 03 39 3c 6c fb fd 3b
       -0.017246611 -0.043455027 0.011292306 0.007750919
000210 af 35 56 3b f6 71 91 3c df a7 c7 3c 3e 37 b6 bb
       0.0032685807 0.017754536 0.02437204 -0.0055607846
000220 b7 b0 cd 3a e1 6e 07 3b 7c 7a 76 3c fc 2c 06 3d
       0.0015692924 0.0020665454 0.015043851 0.032757744
000230 10 89 13 3a 5d c5 03 bd 9b 15 d6 3b 1f 34 99 3c
       0.0005628029 -0.032170642 0.0065333373 0.018701611
000240 4a 63 91 3d a2 d7 03 3d f1 c6 63 3e 8e 61 c4 3d
       0.07099016 0.032188065 0.22243859 0.095889196
000250 d9 c7 1b 3c 9c f6 86 3e f4 a5 48 3e 37 50 42 be
       0.009508097 0.26360023 0.19594556 -0.18975912
000260 8e eb 8f bc ed fa b2 bd 06 b0 7d bc 07 8b 45 3d
       -0.017568376 -0.087392665 -0.015483862 0.04822829
000270 a2 a1 8c bc 14 03 92 3c 65 2f 4e bd 0c 31 29 bd
       -0.017166916 0.017823733 -0.050338168 -0.04130654
000280 e1 c5 15 3c a2 9b 0a bd 56 c7 fb bb 1b f1 c9 bb
       0.009141416 -0.03383983 -0.007683675 -0.006162775
000290 4a 7a aa 3c 54 23 09 bc 1c 26 94 bc 5b 24 41 3c
       0.020810265 -0.008370239 -0.018084578 0.011788453
0002a0 5c d5 34 3b 84 80 bb 3d 5e 03 ae 3c dd 7c 67 ba
       0.0027592992 0.09155372 0.02124184 -0.0008830557
0002b0 74 8a 38 3c 8e fb 59 3c 06 ec 29 bd b3 9b 37 3d
       0.011263479 0.013304604 -0.041484855 0.04482622
0002c0 6e c3 96 b8 3f ad 9b 3d 24 3e 7e 3d 60 b9 ce be
       -7.188959e-05 0.076014034 0.06207098 -0.40375805
0002d0 fa f7 92 be e8 50 a1 3c b8 3c 37 3e e5 a7 5f bd
       -0.28704816 0.0196919 0.17894256 -0.054603476
0002e0 d9 f4 93 bd 50 5f 88 3c 60 1e 9c 3d b3 fa cf 3c
       -0.07224435 0.016647011 0.07622981 0.025388097
0002f0 0f 54 9f bd f2 70 db bd cf 46 60 3c f4 86 45 bc
       -0.07779705 -0.10714902 0.013688757 -0.012056101
000300 0f 86 84 b9 8e 28 37 3c 67 2f 69 3c 94 9e 09 bc
       -0.00025276883 0.011179103 0.014232493 -0.008399624
000310 45 12 2d bc 1f 90 8a bb 60 18 a7 3c 94 b8 97 bd
       -0.010563438 -0.0042286064 0.020397365 -0.07408252
000320 4e 5a c1 3b b7 a0 60 bc c0 dd b1 bc 32 02 2a bd
       0.0059006577 -0.013710192 -0.021712184 -0.041506
000330 fe 00 74 3d 97 60 74 3d 47 50 4b bd b5 15 14 3e
       0.05957126 0.059662428 -0.049637105 0.14461406
000340 1d e3 33 bd 1e 2c c3 be 39 02 88 be 6d 37 7e 3d
       -0.043917764 -0.38119596 -0.26564196 0.062064577
000350 df 15 20 3d b0 e2 9a bd 3f 64 bd be d3 c4 20 be
       0.039083358 -0.075627685 -0.36990544 -0.15700082
000360 00 4b 47 3d 75 37 ac bd 3b 17 39 3d de 59 0a 3e
       0.04865551 -0.08409015 0.04518817 0.13510844
000370 61 54 bb 3c 94 ee 1c 3d 17 c6 b7 bb 64 cb 3d bc
       0.022867383 0.038313463 -0.005608331 -0.011584137
000380 02 0a 8d bd 7c 8a 9a 3b 56 7e e3 3c c0 22 c6 bb
       -0.068866745 0.0047162157 0.027770203 -0.006046623
000390 ab ed 1a bd 51 af 3c 3d b5 d8 24 3d 47 6f b9 3c
       -0.037824314 0.046065632 0.04024573 0.022636069
0003a0 d7 77 a7 bc e9 1c 3f be 09 47 ac 3d 8f 79 b2 3c
       -0.020442886 -0.18663372 0.084119864 0.02178648
0003b0 96 9b 45 bd 52 19 18 be 13 50 89 3e 04 c2 15 3e
       -0.04824408 -0.14853409 0.26818904 0.14624792
0003c0 75 73 33 3e df f7 c2 bd 0c 19 47 3e 18 0d bb bd
       0.17524512 -0.09519934 0.19443148 -0.09133357
0003d0 26 39 26 bd 6b 23 d5 bd d0 3d 6b 3d a2 6e 27 be
       -0.040581845 -0.10407146 0.057431996 -0.16350797
0003e0 71 78 78 bc a1 9f eb 3c 82 74 f0 3c 81 6c 0a bd
       -0.015165434 0.02876264 0.02935243 -0.033794884
0003f0 99 43 f2 bc 53 9d 60 bd 84 e4 9a bc 90 6f c1 bc
       -0.029573249 -0.054837536 -0.018907793 -0.023612767

fc1.bias f4 [10]
000000 01 11 ec bd c3 99 37 3c 51 ed 01 be 33 cc 84 3d
       -0.11526681 0.011206093 -0.12688185 0.064842604
000010 c6 f3 84 be 8e b1 bd 3e 50 09 06 3e 91 c2 20 be
       -0.25967234 0.37049526 0.1308949 -0.15699221
000020 b8 f5 b0 3d 4b 38 a6 be
       0.08640617 -0.32464823

fc21.weight f4 [2, 10]
000000 42 a0 b6 bd a8 e5 31 bf c6 09 7e 3e c4 9e 75 bc
       -0.089172855 -0.6949105 0.24808416 -0.014991466
000010 f7 d9 d1 be 75 ea 32 3e a3 ff 35 be 06 0c 1c 3f
       -0.40986606 0.17472251 -0.17773299 0.60955846
000020 cd d6 bd bd a8 cf 44 3f 5b 84 31 be b5 1b a1 3d
       -0.092694856 0.7687936 -0.17335646 0.07866613
000030 25 c1 fc bc 8e db 12 3f 67 8f 36 be 51 9e 04 bd
       -0.030853817 0.57366264 -0.17828141 -0.032377545
000040 73 9a 1b bc f2 5a 21 be 54 e1 0e 3e 12 89 ad 3e
       -0.009497273 -0.15757349 0.13953143 0.3389364

fc21.bias f4 [2]
000000 46 c6 b4 3e cf 80 13 bd
       0.3530752 -0.036011513

fc22.weight f4 [2, 10]
000000 6d f8 5e 3e ca ef 8e bc 4d b2 8b bd 25 cd 36 be
       0.21774454 -0.017448325 -0.068211176 -0.17851694
000010 9b e5 3a be 86 9c 06 3e dd a8 86 be 68 90 2c be
       -0.1825165 0.13145646 -0.26300707 -0.16851962
000020 ea 1f de bb 1e 87 34 3e ef 7a 87 be 3e be a0 3e
       -0.006778707 0.17629668 -0.26460978 0.31395143
000030 89 3c 7f bf 76 ef 7a 3d e6 27 25 3e e5 7d e6 3e
       -0.99701744 0.061263524 0.16128501 0.45017925
000040 2a 50 37 3e 82 68 ad be 45 9c 0b 3e 44 3a 2f be
       0.17901674 -0.33868796 0.13633831 -0.1711207

fc22.bias f4 [2]
000000 b3 fd da be 6a 28 8a bf
       -0.42771682 -1.0793583

batchnorm1.weight f4 [10]
000000 67 d3 70 3f f3 fd 97 3f ab 68 75 3f aa 3e 76 3f
       0.94072574 1.1874374 0.95862836 0.9618937
000010 3c 5d ad 3f c6 59 79 3f ad cc 84 3f ff ad 91 3f
       1.3544078 0.9740261 1.0374962 1.1381224
000020 de 4c 80 3f 9f 52 8e 3f
       1.0023458 1.1118964

batchnorm1.bias f4 [10]
000000 94 32 04 bf ea 71 60 3e 0a f8 4a be 85 2d ea 3e
       -0.51639676 0.21918455 -0.19821182 0.45737854
000010 94 da b5 3e 16 a2 d2 be ae 21 d9 3e d4 de 19 3f
       0.35518324 -0.41139287 0.42408508 0.60105634
000020 dd 2d d0 be fa f8 ca be
       -0.4065999 -0.3964308

batchnorm1.running_mean f4 [10]
000000 f1 81 12 3e ff dc 71 3e 2f 65 d4 3d 26 50 97 3e
       0.14307381 0.2361946 0.10370862 0.29553336
000010 25 0b a8 3b 74 37 4e 3f 26 0e 19 3f b7 ef 33 3e
       0.0051282817 0.80553365 0.59787214 0.17571913
000020 f1 19 ad 3e 3d 75 43 3d
       0.33808854 0.04771923

batchnorm1.running_var f4 [10]
000000 2f 65 81 3e 4d 69 02 3f 36 6f 0c 3e f4 3a ba 3e
       0.2527251 0.50941926 0.13714299 0.36373103
000010 e1 92 0c 3c 59 c6 55 3e 90 3c 98 3e 8b f4 c7 3e
       0.008579941 0.20876445 0.29733706 0.3905376
000020 0e 24 95 3d a7 3e d9 3c
       0.072822675 0.026519133

fc3.weight f4 [10, 2]
000000 91 06 30 3f 13 5f d0 3d 24 4d 0e bd 2b 5d 03 be
       0.6876002 0.10174384 -0.034741536 -0.1282851
000010 4f 6a 0a 3e ab 8f d2 3d 55 8d c4 3e c0 a5 9c 3d
       0.13517116 0.10281309 0.38389078 0.07648802
000020 13 25 25 bf 83 2c 87 3d 9e 61 ba bd f1 c9 4e bf
       -0.64509696 0.06600287 -0.0910065 -0.8077689
000030 c0 82 31 be 73 2b 2e 3f bf 04 09 be fc 70 7f 3f
       -0.17335033 0.6803505 -0.13380717 0.99781775
000040 f9 c3 2e 3f 7c 0a 1f be 04 2c 84 3e c0 60 7a 3e
       0.6826778 -0.15531343 0.2581483 0.2445097

fc3.bias f4 [10]
000000 2d 39 e5 3e 75 24 ae bd d2 f0 26 40 f5 22 14 bf
       0.44770184 -0.085030474 2.6084485 -0.5786584
000010 ef 13 a0 be 9a 8c a4 be e2 a9 41 3e 7e 13 20 3f
       -0.31265208 -0.3213852 0.18912461 0.6252974
000020 c2 d1 de 3e 7f 42 a4 3e
       0.43519408 0.32081982

batchnorm3.weight f4 [10]
000000 23 d1 29 40 64 58 cc 3f e7 51 f9 3f b2 02 96 3f
       2.6533897 1.5964475 1.947812 1.1719573
000010 bf b1 a4 3f 66 f9 df 3f 22 3d 1b 40 f2 45 28 40
       1.2866744 1.7497985 2.4256063 2.6292691
000020 bd ae 0e 40 04 cc 0e 40
       2.2294152 2.2312021

batchnorm3.bias f4 [10]
000000 19 c7 88 be 5e c2 3a bf c8 8a ac be f7 b2 f6 be
       -0.267144 -0.7295283 -0.33699632 -0.48183414
000010 15 cb c8 3a ce 53 6e bd 6c 0e 98 3c da da ac bc
       0.0015319312 -0.05818539 0.018561564 -0.02110045
000020 ad c6 35 be f6 36 b5 3d
       -0.1775157 0.088483736

batchnorm3.running_mean f4 [10]
000000 f8 f9 37 3f 9c 99 19 3b 72 ef 2b 40 24 b8 0b 3c
       0.718658 0.0023437506 2.6864896 0.008527789
000010 7b cd 27 3d df 6e c4 3c 69 a9 d8 3e b0 38 75 3f
       0.040967446 0.023978649 0.4231675 0.95789623
000020 46 54 21 3f e6 33 fb 3e
       0.63019216 0.49063033

batchnorm3.running_var f4 [10]
000000 6c 05 87 3e 84 80 22 3a 74 cf 8d 3c bb d4 f4 3b
       0.26371324 0.000619896 0.017310835 0.0074716485
000010 90 34 f9 3c a3 9d 0c 3d c1 a4 6d 3e 98 fc 09 3f
       0.030420572 0.03433002 0.2320738 0.5390105
000020 62 56 7e 3e d6 97 8f 3d
       0.2483764 0.07011382

fc4.weight f4 [30, 10]
000000 0e 18 e0 3e fe f0 32 3d 30 25 59 3f c8 74 77 bf
       0.43768352 0.04368686 0.8482237 -0.9666257
000010 c2 51 fd be bf c1 46 be a9 a6 5d bf 92 52 72 3f
       -0.4947644 -0.19409846 -0.8658243 0.9465724
000020 50 60 b2 bc 15 10 4b bf 71 35 64 bf e7 c3 42 3f
       -0.021774441 -0.79321414 -0.89144045 0.76080173
000030 e6 d9 2c 3f c1 31 e6 be 64 78 4e 3e 7a 61 96 bf
       0.67519987 -0.44959834 0.20163113 -1.1748497
000040 34 13 a5 be bb 59 25 3f 24 d4 86 3f 49 04 59 bf
       -0.32241213 0.6459004 1.053349 -0.84772164
000050 63 54 cb be 2b 7e 5e 3d 6b e3 c8 3d aa 06 ab 3e
       -0.3971282 0.054319542 0.098090015 0.33403522
000060 30 98 31 bf 79 53 2c be a6 58 8e bc 39 2c 09 3e
       -0.69372845 -0.16828717 -0.017376255 0.13395776
000070 96 ac 56 bc f6 25 4b bd 6f 2e c1 be e3 98 da be
       -0.013102671 -0.04959675 -0.3773074 -0.42694768
000080 f3 d6 e7 be 11 07 8e 3d c1 8d 7d 3e 41 de d9 3e
       -0.4528118 0.069349416 0.24761106 0.4255238
000090 28 2b cc bf 58 29 a2 3f fe 9b d6 3e f4 63 dc 3e
       -1.595067 1.2668867 0.41915888 0.43045008
0000a0 08 3c 87 bf 56 60 1d 3f 7e 5e 3a 3f d4 99 07 3f
       -1.0565195 0.6147512 0.72800434 0.529691
0000b0 27 34 df 3d 82 72 54 bf ad 48 64 3f 3d d2 b7 bf
       0.10898619 -0.82987225 0.89173394 -1.4361035
0000c0 50 3f cf 3e 15 37 05 3f 99 79 4d be 03 b4 41 3f
       0.4047799 0.52037174 -0.20065917 0.756653
0000d0 5e c2 74 be 55 73 8e be 7b 9e b2 be 3b df 37 bf
       -0.2390227 -0.27822366 -0.34886536 -0.71825
0000e0 e0 37 06 40 86 79 f0 bf 1a 93 0d 3f 66 2d 11 3e
       2.0971603 -1.8787086 0.55302584 0.14177474
0000f0 e9 f9 8a bf 15 a3 3b 3c 80 a2 1e bf 70 61 31 be
       -1.0857517 0.011452456 -0.61966705 -0.17322326
000100 d5 50 00 bf 1b 1e 4c 3e 27 56 f1 be 43 61 25 3f
       -0.5012334 0.1993336 -0.47136042 0.64601535
000110 b3 9d 99 3f 9a 59 fa 3e 07 66 d0 3f 02 23 7b 3d
       1.2001251 0.48896486 1.6281136 0.061312683
000120 79 05 61 bf 8b 11 4d 3c b7 1d 20 be 6b c6 d0 be
       -0.87898976 0.01251639 -0.15636335 -0.4077638
000130 b6 78 bc 3e e9 2f 10 3e 99 22 16 bf dd c5 59 bf
       0.36810845 0.14080776 -0.5864654 -0.8506754
000140 72 66 cd bf 11 89 31 39 d6 9b 90 3f 2a ea 8e bd
       -1.6046889 0.00016931097 1.1297557 -0.06978257
000150 fb 30 36 3f 77 e2 63 3e 54 19 21 bf 5e 18 0e bd
       0.7116849 0.22254358 -0.6292927 -0.034691207
000160 a7 c4 2f 3f fa 4b 27 3f 61 8f 81 bf 3d e2 93 bb
       0.6865944 0.65350306 -1.0121881 -0.0045130537
000170 50 18 e7 3e 68 1e 66 bd f6 45 b7 3e f8 43 be 3d
       0.45135736 -0.05618134 0.35795563 0.09290308
000180 b4 10 74 3e 25 8a d6 be f9 f8 e6 3e 82 c7 32 3f
       0.23834497 -0.4190227 0.45111826 0.69835675
000190 25 a0 c2 be d1 54 33 bd b2 92 2c be 5d d1 11 bc
       -0.38012806 -0.04378206 -0.16852835 -0.008900014
0001a0 7d 1d 66 bd 28 00 85 3d 90 60 88 bd f8 8e 9f 3c
       -0.056180466 0.064941704 -0.06659043 0.019477352
0001b0 f3 6c 82 3e 80 86 cc 3e 4f fa 42 bd 34 67 97 bd
       0.25473747 0.39946365 -0.047601994 -0.07392731
0001c0 91 88 fe 3e 93 98 17 bc 67 9d bd 3e 37 ec 0f 3e
       0.49713567 -0.009252685 0.3703415 0.14054953
0001d0 9f eb ef be 46 ff 68 3e e3 07 1a be 44 73 3f be
       -0.46859452 0.22753629 -0.15042071 -0.18696314
0001e0 0c 9f 92 3e f8 90 3d 3d fd c9 be be de 22 16 3c
       0.28636968 0.04628083 -0.3726348 0.009163586
0001f0 8e 38 b8 bd 90 24 b8 bd fe 7a 50 3d b8 44 af 3d
       -0.08995162 -0.08991349 0.050898544 0.08558029
000200 21 dd 71 bd 57 27 c3 bb 83 57 2f 3f d8 95 21 bd
       -0.059048776 -0.0059556174 0.6849291 -0.039449543
000210 74 d2 02 3d b9 27 5e 3c e3 5c b4 3d 81 7d 50 bc
       0.031938985 0.013559275 0.08806779 -0.012725235
000220 f7 d0 12 be 64 0c 7c 3e d7 2b bc be d8 c3 19 bf
       -0.14337526 0.24614102 -0.36752197 -0.6006446
000230 08 2f 2f bd cf c2 1e 3e cd 79 ae be 1e b7 5f 3c
       -0.042769462 0.15504001 -0.34077302 0.013654498
000240 29 98 ad bd b6 78 43 be 05 62 59 3e ba 1e 13 be
       -0.08476288 -0.19089016 0.21228798 -0.1436719
000250 d1 8f 29 3e 8f ea 56 3e 14 7b 96 3e ae 32 1d 3e
       0.16558768 0.20987915 0.29390776 0.15351364
000260 e3 64 13 be ec 36 82 bc a2 4f 2a 3d 66 07 fa bd
       -0.14393954 -0.01589533 0.04157985 -0.122084424
000270 30 8c b4 bc db df 52 3d 4a 10 2e be 86 80 9c bd
       -0.022039503 0.051483016 -0.16998401 -0.076417014
000280 97 77 0b 3f 99 0c 95 bd 34 a0 23 be 77 7f 33 3c
       0.54479355 -0.072777934 -0.15979081 0.010955683
000290 5a 8c 80 3b c3 1e 86 3c ab f6 53 3d a1 57 b4 3d
       0.003922981 0.01637209 0.051748913 0.088057764
0002a0 be f5 9b be 96 32 9b be c4 81 2b 3e 56 e8 bd 3c
       -0.30460924 -0.30312032 0.1674872 0.023182075
0002b0 82 4d 82 3b 1e 87 78 3c 9a e9 60 bd 29 4d 53 bd
       0.003976525 0.015168933 -0.05491028 -0.051587258
0002c0 a0 23 b3 3c 93 42 ba 3d 9d db ab bc f3 15 76 be
       0.021867573 0.09094729 -0.020978743 -0.2403181
0002d0 41 14 12 3e 74 fe 99 3d 6e 4b 90 bd c2 8b f0 3c
       0.14265539 0.07519236 -0.07045637 0.029363517
0002e0 95 31 bf bc f0 34 89 bd 13 ef ba 3d fc 13 08 be
       -0.023339072 -0.0669955 0.09127631 -0.13288873
0002f0 ac 1a 43 be 2c 13 75 3d 82 4c fe bd 24 b6 9d be
       -0.19053143 0.059832737 -0.124169365 -0.30803025
000300 87 46 99 3e f2 69 82 3d 5c 01 ac be 6b 77 0f 3e
       0.2993662 0.06367864 -0.33594787 0.14010398
000310 3b 14 83 3d 3b c6 0f 3f 31 5b 44 3f a8 8e 82 bf
       0.06400343 0.5616185 0.7670165 -1.0199785
000320 aa 79 23 bd 14 d6 fd bd f3 e4 ae 3e 84 4e f0 3c
       -0.03991095 -0.12394348 0.3415905 0.029334314
000330 83 2e ca bc c4 b7 ea 3d 39 67 7a bc 42 18 e0 3d
       -0.024680382 0.11460832 -0.015283399 0.10942127
000340 84 44 ca 3d e0 c2 c2 be 4d f7 e6 3c d6 d3 a6 bc
       0.098763496 -0.38039303 0.028194094 -0.020364683
000350 3f 7a 11 3e 9f 57 46 bb 31 43 84 3d 0f 6e 79 3d
       0.1420679 -0.0030264629 0.06458128 0.060895976
000360 b3 b7 77 bc cd 05 dc bd a9 ef 55 be 08 35 61 3d
       -0.015119481 -0.10743294 -0.20892204 0.054982215
000370 7f 58 0c be e1 a3 0f 3e 8c cd 81 3f 08 5b 3a 3c
       -0.13705634 0.14027359 1.0140853 0.011374243
000380 05 35 8a 3e b6 fb 27 bb 5d 0c 44 ba 71 79 67 be
       0.26993576 -0.002563221 -0.0007478649 -0.2260492
000390 d2 1c 6a be f4 bd cd be a4 1b 87 3d a8 d9 7e 3e
       -0.22862557 -0.40183985 0.06597069 0.24887717
0003a0 cb 74 7b bd ad be de 3b a0 49 8d bd bb f7 8b be
       -0.06139068 0.0067976327 -0.068988085 -0.2733744
0003b0 4c d5 ef 3e 26 56 cc be 79 37 42 3d 2a 05 fb bc
       0.4684242 -0.39909476 0.047416184 -0.03064211
0003c0 1d bb 93 bd 7d cc 0f 3d 67 6f 1b 3e 3b 96 ed bc
       -0.072134234 0.035107125 0.15179215 -0.0290023
0003d0 98 d0 d1 3d a0 06 17 bc 67 77 83 3c 11 e4 b2 bd
       0.10244864 -0.009217888 0.016048146 -0.087349065
0003e0 6d 5f 78 bc 36 f9 fe 3c 05 39 ad bd fc 91 10 bd
       -0.01515947 0.031124692 -0.08458141 -0.03529547
0003f0 b0 ce 10 3d f6 7c e2 3a 21 b5 00 3d 3c 98 2d 3d
       0.035353363 0.0017279673 0.031422738 0.04238151

fc4.bias f4 [30]
000000 90 f8 88 3d f1 4b 09 3f 4d ee 09 3e db 9d d7 be
       0.066880345 0.536315 0.13469811 -0.42112622
000010 5f 33 1c 3f 1c 10 80 3e 52 d7 b6 be 28 59 03 3e
       0.61015886 0.2501229 -0.3571115 0.12826979
000020 0e 74 54 3c 2c 3e fd bd ac 20 41 be f0 27 f9 3d
       0.012967123 -0.12365374 -0.1886012 0.121658206
000030 70 e9 d8 bc 61 91 30 3e 61 e6 4f bc 84 5b e1 3d
       -0.0264785 0.17242958 -0.012689204 0.11003783
000040 cf eb dd 3c 99 6c b7 3d 58 a1 13 3d cd 56 f4 3d
       0.027089981 0.0895626 0.03604254 0.119306184
000050 37 65 b0 3d f5 d0 ee ba bc 5c cf 3e 02 cf 24 3e
       0.08613055 -0.0018220233 0.40500438 0.16094592
000060 ce 76 15 3d 9d 88 05 bd 3c 44 00 be 07 60 d1 bc
       0.036490254 -0.032600988 -0.1252603 -0.025558485
000070 55 ef bf be 1f 00 80 bf
       -0.37487283 -1.0000037
