models/best_models/novelty/model_randomstate_3_epochs_3000.pkl (torch_old, 5988 bytes, 18 tensors)

fc1.weight f4 [10, 30]
0.23595059 0.2814925 0.2689331 0.4809198 0.10324996 0.022038251 0.08081081 0.028970102
-0.18391035 0.020345436 -0.06211468 -0.03265004 -0.032080878 0.029213473 -0.11453158 -0.03947659
-0.058578305 0.10472867 -0.16461319 0.0032620053 -0.0357623 -0.082955115 0.08028948 0.037439786
-0.23106988 0.38836315 -0.085977115 -0.0349751 -0.0099782925 -0.017078085 -0.27225205 -0.4081784
0.083392255 0.12988742 0.22277026 -0.09263872 0.09207801 -0.06928281 0.15384875 0.01899618
-0.04791671 0.2415285 0.0001684603 0.20051436 0.06197443 0.071600325 0.13676995 0.12601328
-0.08358361 -0.08559941 -0.06921224 -0.11919318 0.018034749 -0.08637057 0.04626688 0.07495485
-0.0015773012 -0.022521624 -0.23487069 -0.15389614 -0.3884414 0.008007372 -0.35724822 -0.3758363
-0.13016014 0.25207713 -0.22442113 0.11007958 0.20170555 0.13565674 0.07833049 0.04462177
0.038968172 -0.010281345 0.13793762 0.009911309 0.085299835 -0.1356037 0.0134919025 -0.0049861996
-0.016654953 0.024073064 0.008385179 -0.03996756 0.28072405 -0.28778923 0.0867715 -0.051194
0.21627825 -0.07751632 -0.120125644 -0.09808623 -0.22817142 -0.20744784 0.04457034 0.24162315
-0.2770458 0.088828295 0.15722913 0.11078631 0.070745215 0.05209881 0.02003805 0.01970996
0.09691638 0.007976725 0.019152718 -0.139882 -0.09568188 0.03026033 -0.0030238137 -0.041231513
0.026327336 -0.036950484 0.39973876 -0.12915258 0.030594593 -0.081255466 0.3110141 0.19338498
0.3326406 -0.04431664 0.060627744 -0.39574784 -0.061746478 0.1107411 0.1836586 -0.04925997
-0.12716635 -0.16063802 -0.0009649498 -0.08135302 -0.016820725 -0.036377568 0.0117352875 -0.034583736
0.18412346 -0.028658543 0.16608028 0.024332564 0.054163903 0.16391389 -0.12796892 0.06685079
-0.058923606 -0.35561314 0.002516437 -0.041436166 0.032626748 -0.54772073 0.3914314 -0.14554569
-0.010920434 0.046364613 -0.009613304 0.0699023 -0.11312714 0.03440329 -0.106242925 -0.22212622
-0.0116869705 0.05480032 -0.012697935 0.14047691 0.002085255 0.031637903 0.042604174 0.0090989955
-0.07702122 0.20376483 0.11022329 -0.12486502 0.009284039 0.0030533047 0.20994203 0.08172635
0.45237175 0.58307546 -0.058908574 0.09464448 0.17056604 0.10591207 0.188171 -0.18535236
-0.13250315 0.05313495 0.138671 0.00024387572 0.3068682 -0.33081323 0.025164628 0.20286874
-0.047804274 0.107064664 0.17297935 -0.28750402 -0.0023437843 0.24402168 0.025458135 0.014070742
-0.004591389 0.010985747 -0.10506947 0.017538013 -0.10530673 -0.13989678 -0.017941307 -0.021979693
0.07906122 0.038493622 0.10654198 0.059733257 0.056852285 -0.19783238 -0.07791216 0.0178179
0.041153096 0.029451009 -0.08086294 0.09868594 -0.040449727 -0.006048318 0.004999057 0.037405875
-0.043810137 0.12330352 0.1724992 -0.058007892 0.036827218 0.06734007 0.05083648 0.040216923
-0.05505521 -0.009320852 -0.05467709 -0.04142281 -0.14751647 0.07590587 0.44447336 0.35911423
0.10214438 0.07244141 0.008906696 -0.20753878 -0.10095742 0.0037120827 -0.019920446 0.036394425
-0.13117148 0.059213102 -0.0017749717 -0.09540636 0.007928794 -0.04748385 -0.05623921 0.07981087
00000000: 089d 713e c91f 903e 99b1 893e 1f3b f63e
00000010: b774 d33d 9089 b43c 2380 a53d b552 ed3c
00000020: ff52 3cbe 79ab a63c f66b 7ebd 0cbc 05bd
00000030: 3d67 03bd 1851 ef3c 888f eabd 34b2 21bd
00000040: ceef 6fbd fc7b d63d 5c90 28be 5ec7 553b
00000050: 7d7b 12bd 5fe4 a9bd d06e a43d 765a 193d
00000060: 959d 6cbe 89d7 c63e c514 b0bd 0d42 0fbd
00000070: fe7b 23bc 57e7 8bbc 9f64 8bbe c2fc d0be
00000080: 8fc9 aa3d 3501 053e e31d 643e 5fb9 bdbd
00000090: 6593 bc3d 25e4 8dbd 878a 1d3e e09d 9b3c
000000a0: 5044 44bd 3f53 773e b8a4 3039 a353 4d3e
000000b0: e6d8 7d3d 31a3 923d 6c0d 0c3e a009 013e
000000c0: e22d abbd be4e afbd 26bf 8dbd 8e1b f4bd
000000d0: 9cbd 933c 0ee3 b0bd 5782 3d3d ee81 993d
000000e0: 72bd ceba 457f b8bc f181 70be f396 1dbe
000000f0: cbe1 c6be 5a31 033c 3de9 b6be 9e6d c0be
00000100: b348 05be 4110 813e a7ce 65be 6771 e13d
00000110: e68b 4e3e 9ae9 0a3e bc6b a03d 51c5 363d
00000120: 179d 1f3d 1673 28bc 853f 0d3e 0b63 223c
00000130: aeb1 ae3d b2db 0abe 240d 5d3c 4663 a3bb
00000140: f86f 88bc e034 c53c fd61 093c 06b5 23bd
00000150: 10bb 8f3e 1c59 93be 42b5 b13d cdb0 51bd
00000160: 0c78 5d3e e0c0 9ebd 6f04 f6bd 6fe1 c8bd
00000170: c5a5 69be 356d 54be 648f 363d 0f6c 773e
00000180: f2d8 8dbe 9ceb b53d ac00 213e efe3 e23d
00000190: dee2 903d 9065 553d d626 a43c c876 a13c
000001a0: 187c c63d cfb0 023c 29e6 9c3c 3a3d 0fbe
000001b0: ddf4 c3bd 83e4 f73c 2d2b 46bb 60e2 28bd
000001c0: 6dac d73c 6459 17bd 8faa cc3e 9340 04be
000001d0: 83a1 fa3c 4469 a6bd 3d3d 9f3e b606 463e
000001e0: de4f aa3e 5d85 35bd cc54 783d 769f cabe
000001f0: e0e9 7cbd 3bcc e23d 0011 3c3e d3c4 49bd
00000200: e537 02be 4b7e 24be aff4 7cba 6a9c a6bd
00000210: 9ecb 89bc a500 15bd 5d45 403c ada7 0dbd
00000220: dc8a 3c3e 52c5 eabc f310 2a3e 1655 c73c
00000230: f8da 5d3d 0bd9 273e 490a 03be 11e9 883d
00000240: e159 71bd ed12 b6be cfea 243b f8b8 29bd
00000250: a0a3 053d 6d37 0cbf b269 c83e ee09 15be
00000260: 9feb 32bc d2e8 3d3d 1f81 1dbc f028 8f3d
00000270: 34af e7bd 77ea 0c3d e495 d9bd 0e75 63be
00000280: b57a 3fbc 4d76 603d 000b 50bc 2ed9 0f3e
00000290: c6a8 083b bf96 013d b781 2e3d f413 153c
000002a0: 4dbd 9dbd baa7 503e c0bc e13d 3bb9 ffbd
000002b0: 151c 183c f419 483b 0bfb 563e 2560 a73d
000002c0: 459d e73e 6f44 153f 1e4a 71bd f7d4 c13d
000002d0: dda8 2e3e 6de8 d83d e6af 403e 02cd 3dbe
000002e0: e8ae 07be 09a4 593d c5ff 0d3e e4b8 7f39
000002f0: d41d 9d3e 5a60 a9be 0d26 ce3c d3bc 4f3e
00000300: 6ace 43bd b844 db3d 8021 313e ba33 93be
00000310: 2d9a 19bb d2e0 793e 948d d03c f888 663c
00000320: 5d73 96bb 90fd 333c aa2e d7bd e1ab 8f3c
00000330: 0eab d7bd 1a41 0fbe a6f9 92bc c20e b4bc
00000340: d9ea a13d 7dab 1d3d ae32 da3d dcaa 743d
00000350: f1dd 683d 9294 4abe 6990 9fbd d8f6 913c
00000360: 2690 283d 3e43 f13c 789b a5bd db1b ca3d
00000370: 9dae 25bd f830 c6bb 21cf a33b e736 193d
00000380: 4272 33bd 8e86 fc3d a1a3 303e af99 6dbd
00000390: 23d8 163d 97e9 893d ea39 503d 80ba 243d
000003a0: 9281 61bd 7db6 18bc 16f5 5fbd f7aa 29bd
000003b0: 8f0e 17be 8974 9b3d 0392 e33e d2dd b73e
000003c0: 1331 d13d 295c 943d 64ed 113c 0c85 54be
000003d0: c4c2 cebd 6a46 733b 3430 a3bc 5212 153d
000003e0: d151 06be 7089 723d 2ba6 e8ba 6964 c3bd
000003f0: c6e7 013c 6d7e 42bd 165b 66bd e273 a33d

fc1.bias f4 [10]
-0.24739015 -0.0067217806 0.060357 -0.18429376 0.53744763 -0.3085907 0.27498838 -0.22334562
-0.4104862 0.2963385
00000000: d853 7dbe 6242 dcbb e738 773d 81b7 3cbe
00000010: 2b96 093f 9aff 9dbe 47cb 8c3e b7b4 64be
00000020: 3f2b d2be aeb9 973e

fc21.weight f4 [2, 10]
0.21983062 -0.14362256 -0.4010719 0.25723028 0.23223028 0.60209286 0.041068543 0.0045528645
-0.0020622814 -0.28589788 -0.24193919 -0.24782954 0.19176085 -0.08520492 0.58347875 -0.0033290305
-0.31989297 1.0897188 -0.87554103 -0.3791352
00000000: 471b 613e cb11 13be 4c59 cdbe b0b3 833e
00000010: c6cd 6d3e c222 1a3f 7d37 283d 3230 953b
00000020: 5727 07bb 3561 92be e8be 77be 07c7 7dbe
00000030: f55c 443e eb7f aebd dd5e 153f dd2b 5abb
00000040: 03c9 a3be e87b 8b3f 7523 60bf 021e c2be

fc21.bias f4 [2]
0.31812695 -0.35951796
00000000: 89e1 a23e bd12 b8be

fc22.weight f4 [2, 10]
0.05935088 -0.1823943 -0.33969298 0.016589405 0.42668325 0.36577058 0.097887024 -0.18668352
0.198863 -0.6723101 -0.22432365 -0.19339761 -0.32196027 0.2423335 0.2704364 -0.026327485
-0.007211293 0.44847327 -0.4151872 -0.35260594
00000000: e919 733d 92c5 3abe 3dec adbe 81e6 873c
00000010: 3a76 da3e 4846 bb3e fe78 c83d f729 3fbe
00000020: bea2 4b3e 841c 2cbf 19b5 65be 060a 46be
00000030: fad7 a4be 4626 783e a476 8a3e bdac d7bc
00000040: b64c ecbb 4a9e e53e 6b93 d4be c488 b4be

fc22.bias f4 [2]
-0.8680679 -1.1347244
00000000: b339 5ebf a63e 91bf

batchnorm1.weight f4 [10]
0.65532273 0.7685177 1.011482 0.9016245 1.550404 1.0236297 1.0577642 1.6449234
1.6028703 1.1411101
00000000: 3bc3 273f 93bd 443f 3e78 813f ddd0 663f
00000010: a373 c63f 4c06 833f d164 873f da8c d23f
00000020: db2a cd3f e50f 923f

batchnorm1.bias f4 [10]
0.4169864 -0.30161738 1.2713308 0.47840616 0.27316958 -0.2902632 -0.20683941 0.26235974
0.45329624 -0.19057256
00000000: 3e7f d53e 986d 9abe f8ba a23f a7f1 f43e
00000010: e2dc 8b3e 619d 94be b6cd 53be 0454 863e
00000020: 7216 e83e 7425 43be

batchnorm1.running_mean f4 [10]
0.26083514 0.2775114 0.4703355 0.19169185 1.1814336 0.13283603 0.4496976 0.047235936
0.036415033 0.7256419
00000000: 2f8c 853e f915 8e3e d1cf f03e de4a 443e
00000010: 3739 973f 2b06 083e c43e e63e 787a 413d
00000020: ee27 153d abc3 393f

batchnorm1.running_var f4 [10]
0.2903444 0.7203458 1.1064616 0.31679165 0.45894548 0.025660034 0.2715325 0.093552336
0.051422905 0.2557697
00000000: 05a8 943e 9568 383f 89a0 8d3f 8432 a23e
00000010: e7fa ea3e fe34 d23c 4f06 8b3e 5e98 bf3d
00000020: d3a0 523d 3ff4 823e

fc3.weight f4 [10, 2]
-0.02615757 0.58356404 -0.4269617 -0.18511371 -0.37947226 -0.49727744 0.13568288 -0.025952592
-0.043264356 0.8421212 -0.02648287 0.7690558 -0.7264797 -0.12631145 0.037700612 -0.7831519
0.87598354 -0.0061557405 -0.5229569 0.031074768
00000000: 6648 d6bc 7464 153f b99a dabe 738e 3dbe
00000010: 304a c2be 269b febe 74f0 0a3e 889a d4bc
00000020: f735 31bd 4195 573f 9bf2 d8bc d7e0 443f
00000030: 93fa 39bf ca57 01be f56b 1a3d a57c 48bf
00000040: 7540 603f 18b6 c9bb 81e0 05bf 8390 fe3c

fc3.bias f4 [10]
-0.7176796 -0.32922372 -0.54968756 -0.7774036 -0.6363599 0.337807 0.8081896 0.5847037
0.19005348 -0.41799003
00000000: dab9 37bf 0390 a8be 53b8 0cbf ec03 47bf
00000010: 7be8 22bf 0af5 ac3e 83e5 4e3f 24af 153f
00000020: 619d 423e ca02 d6be

batchnorm3.weight f4 [10]
1.6703326 1.672046 1.5949783 0.8394985 2.6125169 2.0179365 1.9625093 1.6272724
1.4790094 1.4912734
00000000: 75cd d53f 9a05 d63f 4028 cc3f 60e9 563f
00000010: 7a33 2740 df25 0140 8133 fb3f 764a d03f
00000020: 2e50 bd3f 0ce2 be3f

batchnorm3.bias f4 [10]
-0.21004447 -0.51205015 -0.19389698 -0.8016706 0.11138311 0.24394585 0.2456 0.08572386
0.14678049 0.4274576
00000000: e615 57be b815 03bf ee8c 46be 493a 4dbf
00000010: d41c e43d f1cc 793e 917e 7b3e fe8f af3d
00000020: a04d 163e b9db da3e

batchnorm3.running_mean f4 [10]
0.040990833 0.01986644 0.014944122 6e-45 0.122818865 0.5749925 0.6099073 0.5132384
0.5728458 0.019190514
00000000: 01e6 273d f2be a23c 31d8 743c 0400 0000
00000010: 7588 fb3d b532 133f e322 1c3f 9763 033f
00000020: 06a6 123f 6d35 9d3c

batchnorm3.running_var f4 [10]
0.050219685 0.011267532 0.014128152 6e-45 0.16378185 0.34408697 0.30540013 0.18597363
0.34289673 0.011694802
00000000: 28b3 4d3d 749b 383c c479 673c 0400 0000
00000010: 6eb6 273e 2b2c b03e 685d 9c3e df6f 3e3e
00000020: 2990 af3e 8e9b 3f3c

fc4.weight f4 [30, 10]
-0.1545449 -0.37922028 0.020923335 0.15749751 -0.11888336 0.10289052 -0.66414016 -0.06766881
0.032637462 -0.003407133 0.15174074 0.25789016 -1.1420484 -0.06169702 -0.84140766 0.8435432
0.066290915 0.58078724 -0.27451265 0.29559815 -1.1839082 -0.29220355 0.26203114 -0.11896302
1.4838216 -1.3397259 -0.14280854 -0.24435833 -0.49322298 -0.22668317 0.8272179 0.22861464
-0.28731838 0.06300357 -1.0552111 1.0816834 -0.5630878 1.2466588 -0.40304905 0.15977369
0.63814074 -0.016196094 0.28588593 0.08109873 -1.171444 1.12436 0.72372305 0.42294562
0.61481786 -0.75449693 -0.48447892 -1.2753117 0.3658787 0.9517969 0.5761068 -0.36123282
1.2018483 -0.13630643 1.3880109 0.46642122 0.9668604 -0.8523354 0.36821148 0.050193544
-0.6259024 0.13117874 -0.06914717 -0.056675937 -0.3078907 0.5759626 -0.21535131 0.07714501
-0.16717234 0.11740158 0.08245963 0.06810382 0.23618081 0.08411592 0.28082213 -0.05032664
0.5849395 0.24998325 -0.0118179275 -0.0871206 -0.114641726 -0.6619332 -0.02544721 -0.50625134
0.16879012 -0.011780101 -0.6023079 0.5414374 -0.5438622 -0.047538877 0.023077212 0.74632406
-0.115864836 0.64660245 -0.022825088 0.02875993 -0.1087316 -0.07144686 0.14044361 0.073993616
0.30033004 -0.44531792 -0.027350347 -0.28485587 0.023086272 0.03283289 0.42029426 0.20441091
-0.035527922 -0.06270512 -0.14020607 -0.32910475 -0.05776376 -0.25795764 0.021984695 -0.06285822
-0.07767519 -0.0182125 0.010323998 0.08648211 0.021367794 0.06295128 -0.018033907 0.056328245
-0.0075183506 0.052093543 0.1816412 0.10248873 -0.073043615 0.07862089 -0.07180516 -0.077391766
-0.005302185 -0.017416239 0.027484735 -0.03636503 0.027442394 -0.13537964 0.2073565 0.054834135
0.26939493 -0.59926194 0.04856528 -0.41468385 0.1250835 0.06553386 -0.31308505 -0.028903663
-0.046224162 0.08227566 0.056672987 0.3227556 -0.046214145 0.25817907 -0.050698604 0.13680907
-0.14099889 0.15426947 -0.112731315 0.01816607 0.044645023 0.12468435 -0.016607549 0.037054166
-0.040476087 -0.04287918 0.40208408 0.07114851 -0.049702663 -0.19048528 -0.30568004 0.060397327
-0.04477532 0.03045327 -0.075605474 -0.04274142 -0.15862527 -0.09236756 0.15970734 0.101986244
0.17306817 -0.17736396 -0.080563284 -0.19386734 -0.1330024 0.04318601 0.38580275 0.6470967
-0.5123011 -0.093247816 -0.3118755 0.40751967 0.030418076 0.2577986 -0.0050709513 -0.5148913
0.053893354 0.20435205 -0.16991211 0.12629287 -0.070128895 0.17069785 0.04466943 0.1135672
0.016964473 -0.20596609 -0.25235316 -0.11013472 0.027210034 0.18584734 0.07619393 0.1450245
0.014856961 0.11703278 -0.0328807 0.07149187 -0.053274453 -0.033383813 0.029873647 -0.09124962
-0.028228655 0.072407894 0.02535072 0.054163385 0.021375626 0.014295323 -0.009794936 -0.11179501
0.059960157 -0.1037516 0.003040346 0.0010359746 0.09029287 -0.0114313075 0.10481971 0.037615657
-0.08585141 0.03128324 0.0019011133 0.056126174 0.09344227 -0.10189841 -0.04993734 -0.058589816
0.016259622 0.050891794 0.14288741 0.0044776583 -0.017127007 0.014696888 -0.14947346 0.093777835
00000000: 0541 1ebe 2929 c2be 6a67 ab3c 0747 213e
00000010: 1e79 f3bd 44b8 d23d 1705 2abf f295 8abd
00000020: dcae 053d 354a 5fbb ed61 1b3e 2e0a 843e
00000030: a42e 92bf 04b6 7cbd 7e66 57bf 72f2 573f
00000040: 88c3 873d 79ae 143f ec8c 8cbe a458 973e
00000050: 4e8a 97bf b49b 95be f228 863e e2a2 f3bd
00000060: deed bd3f 237c abbf 673c 12be 1239 7abe
00000070: b987 fcbe a21f 68be 8dc4 533f f519 6a3e
00000080: 651b 93be 0408 813d 2811 87bf 9a74 8a3f
00000090: 8626 10bf 8492 9f3f 725c cebe b79b 233e
000000a0: 315d 233f acad 84bc a45f 923e 1717 a63d
000000b0: e1f1 95bf 07eb 8f3f ea45 393f 548c d83e
000000c0: b464 1d3f b626 41bf 9f0d f8be 6a3d a3bf
000000d0: 7454 bb3e f6a8 733f bc7b 133f 82f3 b8be
000000e0: 2ad6 993f ea93 0bbe 57aa b13f c3ce ee3e
000000f0: 2a84 773f a732 5abf 3786 bc3e bf97 4d3d
00000100: 243b 20bf b853 063e 089d 8dbd 0725 68bd
00000110: daa3 9dbe 4972 133f 0e85 5cbe 34fe 9d3d
00000120: 3a2f 2bbe 3d70 f03d 98e0 a83d 047a 8b3d
00000130: 62d9 713e f844 ac3d ebc7 8f3e 4f23 4ebd
00000140: 98be 153f 9cfb 7f3e fb9f 41bc 496c b2bd
00000150: 48c9 eabd 7474 29bf ab76 d0bc b099 01bf
00000160: 51d7 2c3e 5301 41bc da30 1abf a49b 0a3f
00000170: 8e3a 0bbf 20b8 42bd 6c0c bd3c 180f 3f3f
00000180: 8b4a edbd bd87 253f aefb babc f299 eb3c
00000190: acae debd bb52 92bd 73d0 0f3e f789 973d
000001a0: dcc4 993e b600 e4be d60d e0bc a1d8 91be
000001b0: 6c1f bd3c c87b 063d cf30 d73e 1851 513e
000001c0: ba85 11bd 8b6b 80bd 2e92 0fbe 6b80 a8be
000001d0: b199 6cbd 0613 84be 3f19 b43c cfbb 80bd
000001e0: 2c14 9fbd 6132 95bc fc25 293c 881d b13d
000001f0: 830b af3c 9aec 803d d8bb 93bc 72b8 663d
00000200: 7f5c f6bb 0a60 553d 2700 3a3e 9ce5 d13d
00000210: e497 95bd fd03 a13d 950e 93bd 937f 9ebd
00000220: f4bd adbb 80ac 8ebc ab27 e13c 7ff3 14bd
00000230: dfce e03c f6a0 0abe 4355 543e c299 603d
00000240: 22ee 893e 3b69 19bf 63ec 463d 7151 d4be
00000250: e415 003e 9e36 863d af4c a0be 60c7 ecbc
00000260: 8c55 3dbd 2480 a83d ef21 683d 3940 a53e
00000270: 0b4b 3dbd 0c30 843e 57a9 4fbd ad17 0c3e
00000280: 0362 10be d1f8 1d3e addf e6bd 03d1 943c
00000290: b3dd 363d 825a ff3d 8e0c 88bc 1cc6 173d
000002a0: 41ca 25bd 14a2 2fbd f7dd cd3e 4fb6 913d
000002b0: 0595 4bbd 930e 43be 1882 9cbe 3063 773d
000002c0: 5366 37bd 2379 f93c 0bd7 9abd a111 2fbd
000002d0: aa6e 22be 342b bdbd 528a 233e 2ade d03d
000002e0: c838 313e e69e 35be 5dfe a4bd 2985 46be
000002f0: c831 08be d0e3 303d f087 c53e 21a8 253f
00000300: 2a26 03bf b6f8 bebd 25ae 9fbe 6ba6 d03e
00000310: 542f f93c 2efe 833e 392a a6bb ebcf 03bf
00000320: 47bf 5c3d aa41 513e 71fd 2dbe eb52 013e
00000330: bd9f 8fbd 6bcb 2e3e 4bf7 363d ec95 e83d
00000340: 14f9 8a3c c6e8 52be 6f34 81be 508e e1bd
00000350: 94e7 de3c c44e 3e3e 900b 9c3d 4d81 143e
00000360: 9c6a 733c e2ae ef3d eaad 06bd 546a 923d
00000370: 5036 5abd 77bd 08bd 94b9 f43c 15e1 babd
00000380: c83f e7bc 974a 943d 50ac cf3c 6dda 5d3d
00000390: f01b af3c ee36 6a3c f07a 20bc c8f4 e4bd
000003a0: c898 753d b87b d4bd 8b40 473b 8ac9 873a
000003b0: 78eb b83d 614a 3bbc b7ab d63d e012 1a3d
000003c0: ddd2 afbd db22 003d c72e f93a 8fe4 653d
000003d0: a95e bf3d 1db0 d0bd 198b 4cbd e0fb 6fbd
000003e0: e632 853c ea73 503d 1451 123e 52b9 923b
000003f0: f04d 8cbc 37cb 703c 920f 19be 980e c03d

fc4.bias f4 [30]
0.06596811 -0.38020533 -0.041667003 0.14789605 0.12998001 -0.584488 -0.2582098 -0.053898204
0.38566768 -0.20192052 0.11112723 0.2990546 0.006409304 0.19210848 0.11230988 -0.15977389
0.043422777 0.018985886 0.089493014 0.36376694 0.21416506 -0.036784597 -0.1292779 -0.18547252
0.051105827 0.028525248 0.007878407 0.13868366 0.063318886 -0.28919986
00000000: 4a1a 873d 46aa c2be 05ab 2abd 1072 173e
00000010: 7b19 053e 01a1 15bf 1334 84be 5dc4 5cbd
00000020: 3c76 c53e 41c4 4ebe ac96 e33d af1d 993e
00000030: 2405 d23b 16b8 443e b902 e63d c49b 23be
00000040: 15dc 313d 4a88 9b3c 1d48 b73d a93f ba3e
00000050: 164e 5b3e 72ab 16bd 6d61 04be 82ec 3dbe
00000060: 5854 513d c8ad e93c 6f14 013c 1703 0e3e
00000070: 55ad 813d 0112 94be
