models/best_models/anomaly/model_randomstate_1_epochs_3000.pkl (torch_old, 6008 bytes, 18 tensors)

fc1.weight f4 [10, 30]
00000000: 2f6d e73d 4706 cabd b151 b8bd 0bd6 e0bd
00000010: 4cfa 273e 8a6f e63d ee22 b0bd 49d3 f33d
00000020: a3c8 81bd a538 8d3d e0dc 8f3d 7389 40bc
00000030: c930 e5bd a913 f8bd 298a d9bd 39b2 ac3d
00000040: 74fb 293d 12c2 69bd f116 b23d f7b9 0c3e
00000050: bd19 0abd d083 6dbd de3a 373e e243 ee3c
00000060: 632f 81bd 65c2 8bbd 0908 583e 21a6 efbd
00000070: 64b3 073e f685 b2bd 5e72 0c3e cb57 c3bd
00000080: d54c 04be bd33 23be 3e58 143e 9b07 bdbd
00000090: 8681 12be f156 42be 23a5 bfbc d78f ea3d
000000a0: 3202 7bbc 0fec b139 29b3 fdbd 6aaa 2f3d
000000b0: b6e2 9a3d 06a6 2f3e 3ae5 073c 0591 86bc
000000c0: b67f 68bd 8e9e 293e 26d9 f6bc e43d 9b3d
000000d0: cbfd febd f6fe cebb 6c6a 28be 6bc0 aabd
000000e0: 39d9 213e 2e08 a03c 0660 353e 3e6e 423e
000000f0: 69b2 3abe 3e6f a93d f434 01be 1c8f 7b3d
00000100: 27f3 3bbb 8a34 cb3d 6631 203d 8d19 263e
00000110: 9438 02be 2cb1 8cbd f16d f43a 6b75 54bc
00000120: 74ba 363e d0b4 5abd 9226 0a3e 7f5f e9bd
00000130: 2909 0bbe e279 dfbc fa59 f13d 38cf e3bd
00000140: 90eb 833b 2b09 a33d 5b28 d1bd f48b 273e
00000150: b300 54bd 793c 1cbe 6b7b 30bd a9a2 a63c
00000160: 8ecd 2fbd 01aa bd3d 310e 203e 71ff a83d
00000170: 2834 4fbd c92f 37bc 4f24 093d d810 3e3e
00000180: 2f63 02be 84d0 603c 0c6c 82bd ae22 87bd
00000190: 5f20 c4bc 1b33 c03d 5992 91bd dbec 1ebe
000001a0: d7b5 163e d829 1bbd 8de2 2bbd 5c1a 5bbd
000001b0: 7399 0fbe 4818 a23c 817e d5bd 6e3c 86bd
000001c0: 7595 bbbd a751 46bd 9f35 58bd bdff c53d
000001d0: a48b 62be 7f2d 13bd 9e7f 98bd 122a 133e
000001e0: 0bed ec3d 93e3 6fbd e715 853d 1a15 d3bd
000001f0: e584 1a3e 7e27 f9bd f3f3 9bbb 05d2 cabc
00000200: aea9 21bd 0b4a e4bd 5ffb e6bd 3ee6 27be
00000210: fa05 eebd e86a 0a3d a393 c0bd 4aec 3cbe
00000220: 4b15 f6bd 80ff 7ebd d1b0 f33d 7186 f93d
00000230: 2d6b 023d bbd9 7a3d 4138 21be ec03 02be
00000240: e756 ac3d 49fb b93c b86b dfbb 695c c03d
00000250: 4090 973d cf4b b13d e761 853d 80e6 043e
00000260: 900a c33d 031a 243e 081b 18be b472 6e3d
00000270: fa7e dd3d 0068 8dbd 88b0 fa3d 6323 d4bb
00000280: 5875 10be 62e7 a53d b377 f8bc fa7c a23d
00000290: 5b7f cb3c bfba 243e 8919 ca3d 52df 44be
000002a0: 610f 873d d439 ff3d 80b2 293e 5916 29be
000002b0: cc27 023e fddf 36bc 8ba3 dd3d 7f8c 28be
000002c0: 6e86 d7bb e5a6 323e a68b 843d de3f e6bd
000002d0: 1c33 e3bc 2a32 ee3d 50c6 153b b4e0 28be
000002e0: efba 0abd 686c f93d 9659 2cbe 29f3 0b3d
000002f0: 773a 4bbd d2fc e43c c3e6 febd 0bdf 11bd
00000300: ed16 d2bd c155 3e3e 84d0 20bd 663d 25be
00000310: 9fa4 633d 732b 0dbe 784a fdbd f00c 8cbd
00000320: 091a 05bd 1c22 6e3d 6403 14bd ef43 053d
00000330: afd9 e33d e121 3cbe e71a 2a3d 704c 94bd
00000340: c62b 1e3e e8a0 0d3e 4074 88bd a218 a2bd
00000350: ff71 fe3d 7803 143e 14ae 1cbe 83a9 7e3d
00000360: 67f4 32be f6dd 063e bc3b 17bc b096 27be
00000370: d46b b43d 1d1b 88bc 5649 c0bc 2b03 15bd
00000380: 9c58 98bd cf9d ed3c ce51 2d3d f49f 15be
00000390: 02a6 f73d eb52 b7bd 67fe 833c eb94 073e
000003a0: 6aa1 143d cae4 3bbe 1bc2 fc3d 71af 103e
000003b0: 269c 523d 93e9 55bb 013d 0e3e cd21 ee3d
000003c0: 33a1 f23d 128b 873d f8bc 023e d152 3ebd
000003d0: f562 eabc 2a4d c23d 07a6 ebbd 31d1 ffbd
000003e0: f2d9 223e 8d7a 2b3d ed05 28bd 2146 d9bd
000003f0: a800 1ebb 7b16 12be d6b1 24be 61c1 f23d
0.11300122 -0.098644786 -0.089999564 -0.109783255 0.16404074 0.11251743 -0.08600412 0.11905534
-0.063370965 0.0689557 0.070245504 -0.01175152 -0.11190946 -0.12113125 -0.10622055 0.08432431
0.04149957 -0.057069845 0.08695782 0.13742815 -0.033715952 -0.057987034 0.1789355 0.029085103
-0.063078664 -0.06824187 0.21096815 -0.117016084 0.13252026 -0.08716957 0.13715503 -0.095382296
-0.12919934 -0.15937705 0.14486787 -0.09229966 -0.14307222 -0.18978478 -0.023394173 0.114532165
-0.015320348 0.00033935948 -0.12387688 0.04288713 0.07562773 0.17153177 0.008294398 -0.016426573
-0.05676242 0.1656439 -0.030132841 0.07580164 -0.12450751 -0.006317015 -0.16446847 -0.08337482
0.1580552 0.01953515 0.17712411 0.18987367 -0.1823212 0.08273171 -0.12617856 0.061415777
-0.0028678866 0.099221304 0.03910961 0.16220684 -0.12716895 -0.0686973 0.0018648488 -0.012967448
0.17844564 -0.053395092 0.13491276 -0.113951676 -0.13577713 -0.027279798 0.1178474 -0.11123508
0.004025884 0.07960733 -0.10212775 0.16361982 -0.05175848 -0.15257443 -0.04308645 0.020341234
-0.04292064 0.09260941 0.15630414 0.082518466 -0.05058685 -0.011180826 0.033481892 0.18561113
-0.12733148 0.013721589 -0.063682646 -0.065984115 -0.023941217 0.093847476 -0.07107992 -0.1552004
0.14717804 -0.037881702 -0.041964103 -0.053491935 -0.1402338 0.019786969 -0.10424519 -0.06554495
-0.09159366 -0.048417713 -0.052785512 0.09667919 -0.22123581 -0.03593206 -0.07446216 0.14371517
0.1156865 -0.05856664 0.06498318 -0.10306759 0.15089758 -0.12165736 -0.0047593056 -0.024758348
-0.03946846 -0.11146935 -0.11278414 -0.16396424 -0.11622234 0.03379336 -0.094031595 -0.18449512
-0.1201578 -0.062255383 0.118989594 0.12183846 0.031840492 0.0612428 -0.15744115 -0.12696809
0.08415013 0.02270283 -0.006818261 0.09392626 0.074005604 0.086570375 0.06512814 0.12978554
0.09523499 0.16025548 -0.14854062 0.05821486 0.108152345 -0.06904602 0.12240702 -0.006473945
-0.14107263 0.081007734 -0.030330515 0.07933994 0.024841001 0.16086863 0.09868152 -0.19225815
0.0659473 0.12462202 0.16571999 -0.16512431 0.12710494 -0.011161801 0.10822209 -0.16459845
-0.0065773046 0.17446478 0.06471948 -0.112426504 -0.027734332 0.11630662 0.00228538 -0.16491967
-0.03386968 0.1217888 -0.1683105 0.034167442 -0.049616303 0.027952585 -0.12446358 -0.0356131
-0.10258279 0.185874 -0.039261356 -0.16136703 0.055576917 -0.13786106 -0.123677194 -0.06838405
-0.032495532 0.058137998 -0.036136046 0.03253549 0.11125504 -0.18372299 0.041529562 -0.07241142
0.15446386 0.13830912 -0.06662798 -0.079148546 0.12424087 0.14454448 -0.1530078 0.062173378
-0.17476045 0.13170609 -0.00923055 -0.16366076 0.08809629 -0.016614491 -0.02347247 -0.036379974
-0.07438776 0.029005913 0.042314343 -0.14611799 0.1209221 -0.08951362 0.01611252 0.13240401
0.03628675 -0.18348995 0.1234171 0.14129426 0.051418446 -0.0032640442 0.13890459 0.11627541
0.118471526 0.066183224 0.12767398 -0.0464657 -0.02861164 0.09487374 -0.115062766 -0.12491072
0.15903452 0.04186492 -0.041021276 -0.10609079 -0.0024109278 -0.14266388 -0.16083464 0.1185329

fc1.bias f4 [10]
00000000: 33e3 d63d e651 b93c af72 2d3e b511 aebc
00000010: 9765 89bd 3dac 2dbe bcd6 1b3e a391 c53c
00000020: 934f 173b c456 cfbd
0.104925536 0.02262206 0.1693828 -0.021248678 -0.0670883 -0.16960235 0.15218633 0.024117297
0.0023088201 -0.10123971

fc21.weight f4 [2, 10]
00000000: 0138 26be 6409 fa3d 4c1e 7dbd 1b5a 96be
00000010: df19 b2bc df23 df3e 9d63 4ebd f5e5 803d
00000020: f0d6 d13d 5f8c 8bbd f64f b6bd 2c0f bcbd
00000030: f9d4 ddbd d0f8 ec3d e7ef d7bd d23e 47bd
00000040: 4447 013f 48cc 88be f4c7 403e 16d7 a1bd
-0.16232301 0.12208822 -0.06179647 -0.2936562 -0.021740852 0.43582055 -0.050387967 0.06293861
0.10246074 -0.06813883 -0.0890197 -0.09182581 -0.10831637 0.11570895 -0.105438046 -0.048643894
0.5049937 -0.26718354 0.18826276 -0.079023525

fc21.bias f4 [2]
00000000: 7b0c 0c3e 221a 003e
0.13676636 0.12509969

fc22.weight f4 [2, 10]
00000000: 6d0c 87be 07d0 d7bd a8b9 663d 8ca6 f4bd
00000010: df8d 90bc 42a8 323e 7db7 c4ba 1d2d ed3c
00000020: ea02 91be c702 813d 5cad 7fbe c80b e33d
00000030: b83b c73c 9ef6 f13d 3cca 2cbe ebb5 c03c
00000040: c5ea 20bd 6fb2 9cbe 8ef5 653d e651 cd3d
-0.26376668 -0.10537725 0.0563294 -0.11945829 -0.017645774 0.17446998 -0.0015008297 0.028952176
-0.28322536 0.06299358 -0.24968475 0.110862315 0.024320468 0.118146166 -0.16874021 0.023524245
-0.039286394 -0.30604884 0.056142382 0.100253865

fc22.bias f4 [2]
00000000: 6578 c93d 495c ebbe
0.098374166 -0.45968845

batchnorm1.weight f4 [10]
00000000: 4b0b 7d3f 8c11 7d3f 9843 7d3f 74ee 7d3f
00000010: a2cf 7d3f 3731 7d3f 252a 7e3f b252 7d3f
00000020: 1408 7d3f a4a2 813f
0.98845357 0.988549 0.98931265 0.99191976 0.9914495 0.9890322 0.9928306 0.9895431
0.9884045 1.0127759

batchnorm1.bias f4 [10]
00000000: ae9b 443c d7e9 423c e908 fcbb 332b 003c
00000010: 43e8 323c 5f9c 40bc ee24 f4bb 1d3e 34bc
00000020: 907a 453c 1401 12bc
0.012000008 0.011896572 -0.007691492 0.0078227995 0.010919633 -0.011756032 -0.0074506914 -0.011001137
0.012053147 -0.00891139

batchnorm1.running_mean f4 [10]
00000000: a057 a23e 5e60 273e d5b1 6d3e 5832 f73d
00000010: 8ee5 e33d 562a 3c3e 1e50 473e 1aff 343e
00000020: f768 233e 0bb9 313e
0.31707478 0.16345355 0.23212369 0.12070149 0.111277685 0.18375525 0.19464156 0.17675439
0.1595801 0.17355745

batchnorm1.running_var f4 [10]
00000000: 95b4 3a3e adeb 0b3e da7b 453e d313 893d
00000010: 67aa 493d 0613 c33d 2dbd ec3d 81da 073e
00000020: 4e4c 9f3d 312c 9c3d
0.18232949 0.13664122 0.19285527 0.06693234 0.049234774 0.09525113 0.1155952 0.13266946
0.07778226 0.07625616

fc3.weight f4 [10, 2]
00000000: efb2 6b3f 2519 e53d f507 2a3b bc87 34bf
00000010: f8b7 163e adff 8abe c214 abbe 8262 0abd
00000020: 6a03 d83e 6607 123e 7ea3 6cbd 9d04 873d
00000030: 9966 b5be 21c2 33bf 7c1d 0cbf 6648 843c
00000040: 7d60 523e 0a9f 043f 402a 47be f664 1fbf
0.92069906 0.111864366 0.0025944684 -0.70519614 0.14718616 -0.2714819 -0.33414274 -0.03378535
0.42190105 0.14260635 -0.057773106 0.06592677 -0.35429838 -0.7021809 -0.5473249 0.016147804
0.2054462 0.51805174 -0.19449711 -0.6226343

fc3.bias f4 [10]
00000000: b4f8 e3be c099 5b3e 54c0 aabe d13f 44bf
00000010: 9ac8 063f 4692 d13c b87e 82bd adbd 813e
00000020: ebd7 46bf 54d0 a6bd
-0.44525683 0.2144537 -0.3334986 -0.76659876 0.52649844 0.025582444 -0.06371826 0.25340024
-0.77673215 -0.08145204

batchnorm3.weight f4 [10]
00000000: 12f9 6d3f 1103 6c3f c568 803f 406a c63f
00000010: c76f 683f bfed 623f cb85 8c3f 16af 703f
00000020: d15f 7a3f 741f 673f
0.92958176 0.9219218 1.0031973 1.5501175 0.9079556 0.8864402 1.097833 0.9401716
0.97802454 0.9028237

batchnorm3.bias f4 [10]
00000000: 6f4a 00bd 43de c73d 00a0 1a3e 2d91 5fbe
00000010: 9f88 bbbe eded 143f 2ab7 5d3e bf84 cebe
00000020: 7e0c 313e cdbd 1dbe
-0.031320985 0.0975919 0.15100098 -0.21832724 -0.3662767 0.58175546 0.21651903 -0.40335652
0.17289922 -0.15404435

batchnorm3.running_mean f4 [10]
00000000: 8a6c c83e 799e b43d ac2d d23b a408 f538
00000010: 78d8 613f 50b4 153d 240b 6d3c 8da4 ed3d
00000020: ac23 cb3c 0313 583c
0.3914531 0.08819289 0.006414136 0.0001168412 0.8822093 0.036548913 0.014467988 0.11603651
0.024797283 0.0131881265

batchnorm3.running_var f4 [10]
00000000: 43c9 3f3f ca88 5a3d 1abd 963c 2fdb 2439
00000010: a226 513e 8ae8 363b c81c 973c ae8f 763d
00000020: 0930 353d 5998 773c
0.74916476 0.05335311 0.018400718 0.00015721911 0.20424893 0.00279096 0.018446341 0.060195617
0.044235263 0.015112006

fc4.weight f4 [30, 10]
00000000: 860a f4bc 05d4 68be b397 25be 8f4e 173f
00000010: 779c 893c 2fe7 65be 42d0 f8be f346 b93e
00000020: efdb debe 9dc8 00bd 962d bb3d f8c6 c6be
00000030: 6b48 50be 9468 04bf bb9c b53c 5113 2b3d
00000040: 5df9 05bf 7653 13be f0d7 973e 33bc 43be
00000050: 5b21 a83d 7d9d 97bd 45df 7cbe 484a 353e
00000060: baf4 873e 8d93 1dbd 0bb5 90bc 3892 73be
00000070: e000 8cbe e2db 3b3d f7d9 ac3e c4d8 81bd
00000080: cc10 f33d cc45 2bbf e3a1 203d 8d4a f7be
00000090: c2a2 973d 83e9 ae3d 86fa 0abe 2c4a 103d
000000a0: 0b12 4c3d 3396 a5bd d6e2 c2be 55df 58bf
000000b0: 3811 c1be d396 3cbe 0057 583e 4efd bd3e
000000c0: a5d6 b1bd ae28 083e ee09 0d3f bfa6 ac3e
000000d0: ba56 413d 7d0f 3dbf 42ec 42be 2ba0 f73e
000000e0: d110 b4be a2c4 003f 9e9d 07bd 579f 76bd
000000f0: d3d6 0b3e ffd3 b03d 5d88 eb3e 927c 353f
00000100: ca05 b0bd 096d 01be 1386 b5bb 4091 2ebd
00000110: a544 63be 1fb2 aabe f355 c7bc ad58 f53d
00000120: 4115 bebb 2a09 1c3f 46d1 693d 8a4e 393e
00000130: d495 853d a98c 003e 1f4c 19bf a40a ebbd
00000140: fa96 343e 78b4 f7bd e7a6 4e3b 658b 21bf
00000150: bfde 45be 3414 42be e7a2 faba d094 37bd
00000160: 7033 bf3d e59d 3e3d 9113 143c fe44 98bd
00000170: d7b5 08be 508f 013f affe c93d 487b 6d3e
00000180: 0271 883d 1df9 ffbd 4197 99bc f84e 233e
00000190: f5bb 743c d379 71bc e1de e53d ee68 13bf
000001a0: 3c10 b7be c6a0 8cbe 4142 11be 44ff b13c
000001b0: 4bc4 503d 658b ce3c bd07 e6bd c75b 053d
000001c0: 0bfb 83bd ff3d 273f ebf5 223e be38 0a3d
000001d0: c38d 7d3e 7578 913d cab1 f03c cc46 06be
000001e0: c5b3 3cbd c1f4 0dbc 0b5b 873d 9eaa 28bf
000001f0: 9bfe 173a ee56 05be 3ffb 8e3d 956f b63c
00000200: ffd6 d2ba 6668 25be 3026 063c 670e aebd
00000210: 1504 263d 6dfc 443f ae93 a2bd 2324 eabc
00000220: 34c9 753e 6f98 76bd e370 2f3e 5f40 1abe
00000230: f195 f83c 1dc1 97bd 7b94 c33d 90fe efbe
00000240: 1c8d eabc e517 683d 17fe 603c 2692 fa3c
00000250: 77ad 7dbd 7333 36bd e4ac 73bc da1f 85bd
00000260: 745a 443d 4b68 273f 84a6 da3c e771 12be
00000270: 75b2 5f3e ecea fb3d 826c ec3c 59c3 c8bd
00000280: ff40 0b3d bda6 993c 88ef e4bd 1961 083f
00000290: 7af5 943d b7f6 1c3e 9c9e 51bd 1c07 bf3c
000002a0: f7ec 133d 88f4 6b3e 897f 73be 8710 8b3d
000002b0: bd08 7d3d 61eb 26bf 7039 053e bccd d33c
000002c0: 6d0a 23be 56d3 cdbc 2338 803a 348f ab3c
000002d0: 8691 d1bc aeac 313e 824d 213d 6b59 1bbf
000002e0: 7c13 e1bd 490c c8be 8729 1a3d 317a bf3d
000002f0: 2fff e73c 4833 91be 18c3 ccbd 3833 973d
00000300: 995e 9d3d 1ddc 26bf d9c2 183d 4ce3 893c
00000310: 42a5 1abe df4c 8fbd 2a5a 4abb 8d70 dc3d
00000320: 45e5 6a3e 5dfc a93c 3bec f8bd ca04 09bf
00000330: c8dc 80bd 2465 97be 4afb cebd cf33 2d3e
00000340: 7cd3 8a3d 184f 053e 0a7a 40be 2ea1 223e
00000350: c90c 0f3d f9e6 27bf 8baf 95bc 63c6 6ebd
00000360: f343 d6bd 4a3a 8dbd d76c 0f3d 75b4 0cbe
00000370: e9af e43d f4d2 06bb 4ae1 0c3d b2b4 0cbf
00000380: 7d39 0ebe 4fcc 28bd 64eb dcbd 7bb0 00bd
00000390: e2a6 e93c ca78 ae3c 666e 083d 28b5 51bd
000003a0: e560 c6bc 0afd 283f feb5 103e 5130 343e
000003b0: fbdb 2f3e 0621 923d 4036 aabd 3b60 68bd
000003c0: c235 39bb aac7 693c f900 13bd 6c52 ccbe
000003d0: 096e 043e e966 36bd 3a7d 933c 0455 b23d
000003e0: e8ab 12bd 504f 3bbd 94ff 1abe cb75 443a
000003f0: a914 c03d 0e81 1abf 968f 803d 8bb8 63bd
-0.029790174 -0.22737129 -0.1617115 0.59104246 0.016798241 -0.22451471 -0.48596388 0.36186942
-0.4352717 -0.03144132 0.09139554 -0.38823676 -0.20340125 -0.51722074 0.022169461 0.04176647
-0.52333623 -0.14387307 0.29656935 -0.19114761 0.08209487 -0.074030854 -0.24694546 0.17704117
0.265539 -0.038470794 -0.017664453 -0.23786247 -0.27344418 0.045863993 0.33760044 -0.06340173
0.11868438 -0.66903377 0.039216887 -0.48299065 0.074040905 0.085406326 -0.1357213 0.035226986
0.049821895 -0.08085289 -0.38063687 -0.8471578 -0.3770845 -0.1841691 0.21126938 0.3710732
-0.08683518 0.13296768 0.55093277 0.33720967 0.04720185 -0.7385176 -0.19035438 0.48364386
-0.3516908 0.5030004 -0.0331093 -0.060210552 0.13656168 0.08634185 0.46002474 0.70893204
-0.08594854 -0.1263925 -0.0055396645 -0.04261899 -0.22194155 -0.3333902 -0.024332976 0.11979804
-0.0058008735 0.60951483 0.057084344 0.18096367 0.06522718 0.12553658 -0.59881777 -0.11476639
0.17635718 -0.120949686 0.0031532587 -0.63103324 -0.19323252 -0.1895302 -0.0019122035 -0.044819653
0.09335983 0.0465373 0.009037868 -0.07435034 -0.13350616 0.506093 0.0986303 0.2319156
0.066621795 -0.124986865 -0.018748881 0.15948093 0.014937391 -0.014738518 0.112241514 -0.57581985
-0.35754573 -0.2746641 -0.1418543 0.021728165 0.05096845 0.025212953 -0.11231945 0.03255823
-0.06444367 0.65328974 0.15914123 0.03374552 0.24761109 0.071030535 0.029381651 -0.13112944
-0.04606988 -0.008664311 0.06609162 -0.6588534 0.0005798132 -0.13021442 0.06981515 0.022270003
-0.0016085802 -0.16153106 0.008187816 -0.08498841 0.040531237 0.7694767 -0.07938324 -0.028581684
0.24002534 -0.060203966 0.17132907 -0.15063618 0.030344935 -0.0740988 0.09549805 -0.46873903
-0.02863174 0.056663413 0.013732455 0.030587267 -0.061933007 -0.04448266 -0.014872763 -0.06500216
0.047937825 0.65393513 0.026690729 -0.14301263 0.2184542 0.12300667 0.028860334 -0.098028846
0.033997532 0.018756265 -0.111784995 0.5327316 0.072733834 0.15328489 -0.051176652 0.02331882
0.03611466 0.230425 -0.2377912 0.06790262 0.06177591 -0.6520291 0.13010192 0.025854938
-0.15921946 -0.025125187 0.0009782355 0.020942308 -0.025582086 0.17351028 0.039380558 -0.60683316
-0.109900445 -0.39071873 0.03763726 0.09349478 0.028319923 -0.28359437 -0.09998149 0.07382816
0.07684059 -0.65179616 0.037295196 0.016832016 -0.15102103 -0.06997084 -0.0030876496 0.10763655
0.22939022 0.020750219 -0.121544324 -0.5352293 -0.06292111 -0.29569352 -0.10106523 0.16914295
0.06778619 0.13018453 -0.18796554 0.15881798 0.034924302 -0.6558681 -0.018272182 -0.058294665
-0.10462179 -0.068958834 0.035015907 -0.13740714 0.11166365 -0.0020572515 0.03439454 -0.5496322
-0.13889118 -0.04121047 -0.10787085 -0.031418305 0.028521959 0.021297831 0.03330841 -0.051198155
-0.024216125 0.66011107 0.14131925 0.17596556 0.1717376 0.07135205 -0.083111286 -0.056732398
-0.0028260802 0.014268795 -0.0358896 -0.39906633 0.129326 -0.044531737 0.018004049 0.08707622
-0.035808474 -0.045729935 -0.15136558 0.0007494359 0.093789406 -0.6035317 0.06277387 -0.055595916

fc4.bias f4 [30]
00000000: 5969 203f 58b7 cfbd b916 363e 9444 2c3e
00000010: 0aba 8bbc 9424 89be 00b1 ea3d c552 283e
00000020: ddb2 e2bd 4f5c af3c b86a b1bd 6353 223e
00000030: 4d1e d4bd 74f0 5c3d 0548 10be 7797 6b3e
00000040: 65a9 123e 4bea ddbd 1f64 1cb8 8e82 14be
00000050: 8ad0 1c3e 9b7c 3cbe c938 07be 18f9 cf3d
00000060: 3087 253d e684 32be 14d1 c73c e977 f43d
00000070: 8a4a 63be 1d08 cdbd
0.6266075 -0.10142392 0.17782106 0.16823035 -0.017056484 -0.2678572 0.11459541 0.16437824
-0.11069272 0.02140632 -0.08662933 0.15852122 -0.10357342 0.05394025 -0.14089973 0.23006998
0.14322431 -0.108357035 -3.7286543e-05 -0.14502928 0.15313926 -0.18406908 -0.13205256 0.10154933
0.040412128 -0.17433509 0.024391688 0.119369335 -0.22196403 -0.10011313
