models/best_models/anomaly/model_randomstate_0_epochs_3000.pkl (torch_old, 5992 bytes, 18 tensors)

fc1.weight f4 [10, 30]
000000 48 28 51 bd 33 d7 98 3d 01 8b ad bc 95 f5 ba 3c
       -0.051063806 0.07462921 -0.021184446 0.02282218
000010 5d 28 af bc 53 96 92 3c 78 c7 f7 3c 0c 4d 67 3c
       -0.021381551 0.017893946 0.030246481 0.0141174905
000020 95 28 3d 3d a8 4b 02 3c 33 1e 3c 3c 0e 22 b7 bb
       0.04618128 0.007952608 0.011481809 -0.0055887764
000030 70 38 ab 3c 30 87 f7 3c f5 38 95 3b 9d 67 6e 3c
       0.020900935 0.03021583 0.004553909 0.0145510705
000040 62 26 bb 3c c8 bd 08 3c db f0 84 3b 38 4f 16 3c
       0.02284545 0.008346029 0.0040570325 0.009174161
000050 25 94 db 3b 92 35 12 bb c0 ac f2 b9 c8 ff 1b 3c
       0.00670101 -0.0022309762 -0.00046286546 0.009521432
000060 24 2e 7a 3a 42 bd 8c bb e3 c9 14 3c 5f 93 ea 3b
       0.00095436187 -0.004295022 0.009081337 0.0071586813
000070 64 8d ae bb 43 9f 3d bf ee 29 bb 3c 93 8a 0f be
       -0.0053269137 -0.7407114 0.022847142 -0.14017706
000080 98 bc 37 be 8d 47 f2 3d 4e 58 8b 3d cd 93 0d 3d
       -0.17943037 0.118300535 0.06803952 0.034564782
000090 4e 2e 35 bd 75 cb 4a 3d d5 95 41 be a3 cc 32 be
       -0.044233613 0.049510438 -0.18904813 -0.17460875
0000a0 89 00 26 3e e9 33 ea 3c 93 48 c7 bd 2e 8f 13 be
       0.16211142 0.028589206 -0.09730639 -0.14410087
0000b0 7c b0 37 3d 2a 61 fb bd d5 ac 48 3c 1f 51 85 bc
       0.044846043 -0.12274392 0.012248238 -0.016274033
0000c0 69 38 a0 3d e0 b7 fd bd b9 c4 d6 bc 5b 45 f2 3d
       0.078232594 -0.12388587 -0.026216852 0.11829635
0000d0 13 67 2a be 2a ff 80 3a fe 31 bb 3d c1 af 6d 3c
       -0.16640882 0.000984167 0.09140395 0.014507235
0000e0 a2 70 1f bc d1 c4 4a 3c 1c a5 40 3e 38 67 14 be
       -0.009731444 0.012376026 0.18812984 -0.144925
0000f0 da 80 bb 3d 36 f1 62 3e 12 8d 14 bd 48 c6 95 bc
       0.09155436 0.22162327 -0.036267348 -0.018283024
000100 57 34 5c be 85 a1 08 3d 44 61 25 3e 23 d4 18 3e
       -0.21504341 0.033357162 0.16150385 0.14924674
000110 17 1c b7 3c a9 2a ab 3d db 77 b9 3d db 30 7e bd
       0.022352261 0.08357746 0.09056064 -0.06205831
000120 e8 34 8e bd c2 a6 4a be ad 6e 6d 3c 02 a4 a8 3b
       -0.06943685 -0.19790176 0.014491719 0.0051465044
000130 e2 ba fc bd ad e1 21 be 44 b2 49 3d 71 38 80 bd
       -0.123403326 -0.15808745 0.049242273 -0.06260765
000140 d0 6b c5 3c 60 f4 cb 3d 23 35 13 3e 6f a8 d3 3a
       0.02409926 0.0995872 0.14375739 0.001614822
000150 83 e7 0d 3e aa d7 e0 bd 74 8a 3d be 40 94 c2 3b
       0.13857846 -0.10978635 -0.18509847 0.005938083
000160 2c 7b bf bd eb b8 14 3d cb a8 ea 3d bb ca 70 3c
       -0.09349665 0.036309164 0.11457976 0.014696772
000170 5c 43 46 3d f8 29 01 3d f4 26 17 3e fe e9 a4 3d
       0.048404083 0.031534165 0.14760953 0.08052443
000180 c0 6a 88 ba c4 5b 78 be c9 ae 5f 3d 1a ef 89 bd
       -0.001040779 -0.24253756 0.054610047 -0.06735058
000190 9b 2d 02 3d 03 9f 80 be 5f c4 38 3d 5b d1 e8 3d
       0.031781774 -0.25121316 0.04510915 0.113680564
0001a0 89 7a 3c be ef fc 57 3c dc c6 3f 3d 1d b0 ba bc
       -0.18406118 0.013182863 0.046820506 -0.022789055
0001b0 95 89 b7 bd 99 ff 1d be 7a 27 de 3c 5e fb e8 bc
       -0.089617886 -0.15429534 0.027118433 -0.028440174
0001c0 5f a0 1e be 4f fd b4 bc bb 30 62 bd 51 4d d1 bc
       -0.15490864 -0.022093443 -0.055222254 -0.025549563
0001d0 94 37 f7 3d 46 43 f8 3d 83 8a 77 3d 51 99 aa bd
       0.120711476 0.121222064 0.06043483 -0.08330024
0001e0 21 cc 0a be 9c f8 51 be 47 1b f0 bd 3b c0 cf 3d
       -0.13554431 -0.20504993 -0.11723953 0.10144087
0001f0 62 61 bb 3b f1 15 3a be 7b 4d e8 3d e4 a9 94 bd
       0.005718396 -0.18172432 0.11342903 -0.072589666
000200 16 43 ed 3d 82 cd 49 3d ee d3 b3 3d da 83 fc bd
       0.11585061 0.049268253 0.08780657 -0.12329836
000210 d6 ba 61 bd 91 33 b5 3d 4a 5a 14 3e aa fd 81 3d
       -0.05510982 0.08847726 0.14487568 0.06347211
000220 c7 6b 22 3e 7f 02 9e 3d 01 1f 0f be f6 72 68 bc
       0.15861426 0.0771532 -0.13976671 -0.014187565
000230 dd 59 30 3d 9e ab 9b 3d c9 5e 69 3d af b2 48 3b
       0.04305445 0.07601093 0.05697516 0.0030624082
000240 d7 f5 3d bd be 30 dd 3c 4d 37 7c 3d c3 25 cc 3d
       -0.04637703 0.027000781 0.061576176 0.0996814
000250 ce d6 03 3e d3 9f 24 3e a2 5b 10 be cb b6 d0 bd
       0.1287491 0.16076593 -0.14097455 -0.10191115
000260 89 bb 4d 3d 91 3d fa bd 80 ea cc 3c af a1 56 3d
       0.050227676 -0.12218774 0.025014162 0.052400287
000270 56 f6 a9 3d b7 cb 8d bd 5a 57 a8 bd 20 c6 64 3d
       0.08298938 -0.06923621 -0.08219786 0.05585301
000280 50 79 01 be e5 c8 5d 3e d8 20 94 bd 4b 62 27 3d
       -0.12643933 0.21658666 -0.07232827 0.040865224
000290 5e 0e 5b 3c 6d 33 b7 3d dc 23 04 3e 49 57 86 3d
       0.013370125 0.089453556 0.12904304 0.06559617
0002a0 7a 65 65 bc 46 34 f0 bc a4 a9 40 3d e7 3e 84 bc
       -0.014001245 -0.0293218 0.047036782 -0.016143275
0002b0 6a 82 a6 bc b1 ae 0c 3c a9 3b 57 bd 88 06 0a 3d
       -0.020325858 0.008586572 -0.05254713 0.033697635
0002c0 b5 b5 1b 3d 44 17 80 bb 56 1f fe 3c 4d 30 de be
       0.038015086 -0.0039090235 0.031020802 -0.43396226
0002d0 28 3a 38 3e 40 85 40 be 3c 55 5a be 0c 88 f4 3c
       0.17990935 -0.18800831 -0.21321577 0.029850028
0002e0 46 0f 9b 3d e1 d2 8e 3d e6 f4 f5 bd 09 9a 4c bd
       0.075712726 0.06973816 -0.12009601 -0.049951587
0002f0 86 83 56 3d 73 d6 13 bd dd bb 05 3d 78 70 91 3c
       0.052371524 -0.036093187 0.032649864 0.017753825
000300 c1 08 b0 3c ed d3 f8 3c ff f9 19 3d 6c 33 b0 3c
       0.02148855 0.030374492 0.03759193 0.021508895
000310 e2 e4 ac 3c fa 3d 87 bb 08 b3 d0 3c 8c bb af bb
       0.021105234 -0.004127261 0.025475994 -0.0053629335
000320 2e 8c 0d 3e c4 b2 7b bd a5 21 b7 bc 98 ff 98 3d
       0.13823006 -0.06144978 -0.02235491 0.07470626
000330 0c 44 00 3e 03 7f cd 3c 50 e9 43 3d dd ae 1d bd
       0.12525958 0.025084978 0.047829926 -0.03849684
000340 8f 38 20 be 26 d7 80 bd db 0b 45 bb b2 c5 53 bd
       -0.15646575 -0.06291036 -0.003006688 -0.05170221
000350 b0 0c 75 bd da 50 37 be 93 1d 99 bc ca e0 8c 3c
       -0.059826553 -0.17901936 -0.01869086 0.017197032
000360 3e 13 db 3d 5f 5f 3d 3d 74 47 38 be 91 fa 28 bd
       0.106970295 0.04623353 -0.17996007 -0.041254584
000370 37 1a d6 bd 5c 2f a6 bd 02 2c 7a bd ec 44 ef 3d
       -0.10454219 -0.08114502 -0.061077125 0.11683068
000380 6f 90 f2 3c f8 46 51 3c cd 1e c4 bd 3a 32 26 bd
       0.029609887 0.012773268 -0.09576187 -0.040575244
000390 bf 4e 1c be 2c 6d f8 3d 05 d6 24 be d9 d7 80 bd
       -0.15264414 0.12130198 -0.16097267 -0.0629117
0003a0 9c 0e 6f 3a 05 4b 23 be 95 b7 56 bd 89 70 1b 3e
       0.00091193034 -0.15946586 -0.05242117 0.15179648
0003b0 2e 23 96 3c db cb ef bd 5b 80 ad bc 99 05 47 3d
       0.018327322 -0.11708804 -0.021179369 0.048589323
0003c0 52 d4 36 bd 9d 8b e3 bc 78 14 17 be a7 76 ce 3c
       -0.04463608 -0.027776534 -0.14753902 0.025203062
0003d0 f1 2d 6a 3d 83 e5 25 bd 81 c8 42 3e c5 79 0d be
       0.05717272 -0.040502083 0.19021799 -0.13815983
0003e0 68 70 86 3d 7e fb 14 3e f7 ae de 3d 7c 16 99 bd
       0.065644085 0.14549062 0.10873216 -0.07474992
0003f0 a9 37 d6 bd 84 3e 12 bd ac 06 f1 3d c4 8e ab 3d
       -0.10459835 -0.03570415 0.11768851 0.0837684

fc1.bias f4 [10]
000000 86 f2 0d 3f 9c 49 e8 bd 02 96 9b 3d bb 55 3c 3e
       0.55448186 -0.11342165 0.07596971 0.18392079
000010 be d8 fe bd 8b 50 c1 3e f1 69 79 3d ab 07 96 bd
       -0.12443684 0.37756762 0.06089205 -0.07325681
000020 4f df 07 be 18 09 9d bd
       -0.13268779 -0.0766775

fc21.weight f4 [2, 10]
000000 ea 8f 98 3e 47 f6 05 bc 0c 0e 9e 3d da bb fb 3a
       0.29797298 -0.008176393 0.07717523 0.0019205764
000010 09 98 6d 3d bc 21 c7 3e cc 45 a3 be 5e 23 98 3b
       0.05800632 0.38892925 -0.31889188 0.004642888
000020 96 ac 0e 3a b1 75 a5 3c fe 1f fe be 94 fa 63 3d
       0.00054425874 0.020197721 -0.49633783 0.05565889
000030 6b d3 ea 3d af 2c 11 be 7c 67 1c 3e 72 83 0e 3f
       0.11466106 -0.14177202 0.15273851 0.5566932
000040 ab 17 a8 bc 03 b9 00 be 96 df 99 ba 61 e1 a1 3d
       -0.020519098 -0.12570576 -0.0011739607 0.07904316

fc21.bias f4 [2]
000000 f7 18 62 bd 06 e1 6b be
       -0.05519959 -0.23035058

fc22.weight f4 [2, 10]
000000 b8 ec 5d 3d 2d 63 93 3b 54 3d 66 3d f4 5b 39 3d
       0.05418083 0.0044979067 0.05621083 0.04525371
000010 85 65 84 3d 48 3a a8 bc 1b b3 15 bd d7 27 f6 3c
       0.06464676 -0.020535603 -0.03654776 0.030048294
000020 bf d6 55 bd 5c f7 1e bd 65 6f 88 3c 87 49 0f be
       -0.05220675 -0.03881012 0.01665468 -0.13992892
000030 da e0 2d 3e 3d 85 b1 3a 14 f3 49 3e 37 55 e0 bb
       0.16980305 0.0013543736 0.19721633 -0.006846096
000040 27 06 4a 3e 01 62 8f 3e a3 71 93 be 76 ff 37 be
       0.1972891 0.2800446 -0.28797635 -0.17968544

fc22.bias f4 [2]
000000 8c 0b 57 bf 13 03 08 bd
       -0.84001994 -0.033206057

batchnorm1.weight f4 [10]
000000 a7 2e a6 3f 97 21 81 3f 63 c8 77 3f 5b 99 72 3f
       1.2982987 1.0088376 0.9679014 0.9476525
000010 2a 12 7d 3f 0b e5 82 3f e8 77 77 3f f3 ac 7c 3f
       0.9885584 1.0226148 0.9666734 0.987014
000020 1a ee 81 3f de 1e 81 3f
       1.0150788 1.0087545

batchnorm1.bias f4 [10]
000000 47 e1 37 be e9 a0 cb 3d 0c 61 be bd 81 9f 5d be
       -0.1795703 0.099428006 -0.09295854 -0.21642877
000010 98 17 d3 bd 37 96 67 3e 91 8a b5 bd 43 1d b8 bd
       -0.103072345 0.22615896 -0.0886432 -0.08989956
000020 4f 3e db 3d ad cd c1 3d
       0.10705244 0.09463058

batchnorm1.running_mean f4 [10]
000000 8e 2e a4 3f 39 8f 5c 3e fb 7b 46 3e af 64 ae 3e
       1.2826707 0.2153901 0.19383232 0.3406119
000010 66 7e 00 3e 6d 1d 54 3f b3 97 a8 3e a5 a0 02 3e
       0.12548217 0.828574 0.32928237 0.12756594
000020 95 95 9c 3d e1 90 d1 3d
       0.07645718 0.102327116

batchnorm1.running_var f4 [10]
000000 27 8b 1e 3d 14 38 49 3e 6b a8 a6 3d a3 45 3f 3e
       0.038706925 0.19650298 0.08137592 0.18678908
000010 68 78 9a 3e b6 69 45 3e 59 93 25 3e a2 79 79 3d
       0.30169988 0.19278607 0.1616949 0.060907014
000020 76 44 a0 3d 6f 88 54 3d
       0.07825558 0.051887926

fc3.weight f4 [10, 2]
000000 90 e1 f4 3e d9 50 22 3c cd a3 59 3e 62 f6 2e 3f
       0.4782834 0.009906971 0.21253891 0.683447
000010 9d 6e 02 3e 27 2a e2 3e 1d 7c 71 3f 82 d4 d0 bc
       0.12737508 0.44172785 0.94330007 -0.025491957
000020 21 1c 60 3e e0 f7 81 3c fa 98 8b be b7 59 51 be
       0.2188573 0.015865266 -0.2726515 -0.2044438
000030 db 64 08 bf 06 06 e6 3e 37 68 36 3e e6 d7 00 bf
       -0.53278893 0.4492647 0.17813192 -0.50329435
000040 43 da 84 3e 99 69 18 3f 98 ba 54 be a6 60 06 3f
       0.2594777 0.5953613 -0.20774305 0.52491224

fc3.bias f4 [10]
000000 27 fd 8e 3d ff 99 ec 3b 44 04 43 bf e0 49 3f bf
       0.06981879 0.007220506 -0.76178384 -0.747221
000010 fc dc 21 3f d1 8e 0b 3f f9 e7 44 3f 61 d5 69 3f
       0.6322782 0.54514796 0.7691646 0.91341215
000020 cd 32 58 bd 63 e8 53 be
       -0.052782822 -0.20694117

batchnorm3.weight f4 [10]
000000 10 15 a6 3f c9 37 8d 3f d0 f0 9b 3f dc ca b3 3f
       1.2975178 1.1032649 1.2182865 1.4046283
000010 b2 e7 91 3f a0 9c 9a 3f 1e 14 83 3f cb b2 9a 3f
       1.1398833 1.2079048 1.0240514 1.2085813
000020 aa 0b 98 3f 9f d5 8f 3f
       1.187856 1.1237067

batchnorm3.bias f4 [10]
000000 cf 83 c0 3d 53 9d cc be 15 ba 2c 3e 93 d4 71 be
       0.094001405 -0.3996378 0.1686786 -0.23616247
000010 23 ab 76 bd bd ea 75 3e bd df bb be 80 6f 65 be
       -0.060221802 0.24015327 -0.36694136 -0.22405815
000020 56 31 90 be 4c 0e c3 3e
       -0.2816264 0.38096845

batchnorm3.running_mean f4 [10]
000000 56 4b 93 3e 77 4e f7 3e c9 1f ee 3c 0b 68 ee 3d
       0.28768414 0.4830205 0.02906789 0.11640938
000010 e7 d6 33 3f e5 4d c1 3e 81 68 58 3f 43 5b 3f 3f
       0.7024979 0.3775474 0.8453446 0.7474863
000020 47 da cb 3e 2c 3b 2b 3e
       0.3981497 0.16721791

batchnorm3.running_var f4 [10]
000000 0d b8 dd 3d 93 1d a8 3e 47 e0 4d 3d 25 8a 26 3e
       0.108261205 0.32835063 0.050262716 0.16263635
000010 25 5c 07 3d 53 6a 69 3d b7 91 88 3e bd ab 45 3e
       0.03304686 0.056986164 0.26673672 0.19303794
000020 78 e0 85 3e c8 16 e6 3d
       0.2614782 0.11234814

fc4.weight f4 [30, 10]
000000 77 00 18 bf 8d fc 1c be ab d1 f4 bd 9c 14 02 3b
       -0.5937571 -0.15330715 -0.119540535 0.001984871
000010 0f 34 89 be 59 d4 6b 3e 9c 53 f9 3d 62 15 e5 be
       -0.2679753 0.23030223 0.1217415 -0.44742876
000020 49 a5 3e be 2f 13 9f be e8 5e d2 3e 0a 8b f3 be
       -0.18617739 -0.31069323 0.41088033 -0.47567016
000030 9b 6d 05 bf aa 50 f2 3b d7 27 fe bd e3 e1 c5 be
       -0.5212037 0.00739487 -0.124099426 -0.386489
000040 0e de 77 3e 8a 38 f4 3e c1 c7 f4 bd 53 aa 59 be
       0.24205801 0.47699386 -0.119521625 -0.2125638
000050 7e e7 87 be ec 1b bc 3e 53 36 43 be 75 b8 3d bf
       -0.26543802 0.36740053 -0.19063692 -0.74109584
000060 08 af 0a 3f 40 a5 43 be f9 91 cc be 24 23 2a 3e
       0.54173326 -0.19106007 -0.39955118 0.16614968
000070 8c 8d a7 3d 20 38 bc 37 7b 00 0a bf d5 27 c3 bd
       0.08181295 2.2437482e-05 -0.53906983 -0.09529082
000080 30 5c 40 3f c6 41 d2 3b 6b 2d ec 3e 3d 81 17 3e
       0.75140667 0.006416532 0.461284 0.14795394
000090 41 5a 51 be eb 80 07 3d bb 31 af be 53 f3 65 be
       -0.20444585 0.03308193 -0.3421763 -0.22456102
0000a0 66 a7 ec 3e e9 1a 41 be 63 eb 90 3e c4 2d 42 bf
       0.46221465 -0.18857922 0.28304586 -0.7585108
0000b0 c1 44 53 be 80 4d 69 be aa b3 94 3e 55 c6 ee 3e
       -0.20631696 -0.2278347 0.29043323 0.4663569
0000c0 3f c5 d2 bd 8b b9 19 3e cc 80 cf 3e f2 91 54 3e
       -0.10291528 0.15012185 0.40527952 0.20758799
0000d0 72 4c 5f be 11 1f de 3d 56 2d 89 bd 73 a5 07 3f
       -0.21806505 0.10845769 -0.066981 0.5298683
0000e0 75 14 88 be 11 36 f2 be 6d 79 f4 3c 84 bf dd bd
       -0.26578107 -0.47306874 0.029843057 -0.10827544
0000f0 ad 2c 0c 3e ed fc e3 bd e2 09 b9 3e ae 1e 4e bd
       0.13688917 -0.11132226 0.36140352 -0.050322227
000100 b4 29 90 3e 70 c3 ec 3e 5a c5 e0 be 81 46 19 bf
       0.28156817 0.46242857 -0.43900567 -0.59873205
000110 26 1f a9 3e 33 76 23 bf 2a aa b3 3d bb 65 3d be
       0.33031577 -0.6385223 0.087726906 -0.18495838
000120 fa 65 17 bd 6f 4e 18 bc 39 b4 2f be d4 47 a1 be
       -0.036962487 -0.009296044 -0.17158593 -0.31500113
000130 cf 68 2f 3e 4c 6e 8d 3e d6 f3 59 be f1 58 a8 3e
       0.17129825 0.27623212 -0.21284422 0.32880357
000140 0c 0c 0c be d0 44 f1 bd 8b c8 68 3d 5b 72 71 3e
       -0.1367647 -0.11780703 0.056831878 0.2357878
000150 6b bd 0e be 6d 99 42 3e ae 61 91 3b 30 03 85 3e
       -0.13939445 0.1900384 0.004436693 0.25978994
000160 37 a1 8b 3e 29 3e 10 be 16 22 36 be b0 a0 aa bd
       0.27271435 -0.14086212 -0.1778644 -0.0833143
000170 02 e9 8d be 59 eb cb 3e 76 7f 1b be 25 91 93 be
       -0.27716833 0.39827994 -0.15185341 -0.28821674
000180 53 dd f1 3d 15 a9 87 3e 95 28 8f be 1c 31 28 3f
       0.11809792 0.26496187 -0.2796065 0.65699935
000190 33 a2 7e be 20 72 e8 3e a8 e5 a2 bd 6b ff d1 3d
       -0.24866562 0.4539957 -0.0795396 0.10253795
0001a0 40 aa 8d bd 92 dc 0a 3e bc a8 b0 be e2 64 a8 3d
       -0.06917238 0.13560703 -0.34503734 0.08222367
0001b0 ff 88 a0 bd 89 ad 31 3d 1c 11 21 bd 2e ad 26 bf
       -0.0783863 0.043378387 -0.039322957 -0.65108
0001c0 ee 98 47 3f cb 8c 6d 3e 92 4d 95 be ae 15 65 bf
       0.7796773 0.2319824 -0.29160744 -0.89486206
0001d0 98 0c f7 3e 6c bf 89 be 0b 81 dd be 16 c0 fd be
       0.48251796 -0.26903856 -0.43262514 -0.49560612
0001e0 8c 2f 49 bd 34 6a d8 3e f2 d0 cf be e6 a8 a9 3c
       -0.04911761 0.42268527 -0.405891 0.02071042
0001f0 2d ce 8a bd 7d eb dd 3e e1 8d e2 be 98 cb 6e 3e
       -0.06777606 0.43343726 -0.4424887 0.23319852
000200 75 94 4c 3e ad d9 c4 3e 4d 8c 63 3c 13 0e 07 3e
       0.19978507 0.38447323 0.013888431 0.13188963
000210 98 e1 5a be ce 69 40 bd 78 f6 12 3d d1 d8 95 3e
       -0.2137512 -0.046975903 0.035879582 0.2926698
000220 d4 7b 95 bd c8 a1 94 3e 03 20 7b 3e bf a0 ff 3d
       -0.07299009 0.2902968 0.2452393 0.12481832
000230 6d 83 16 be f2 5a 89 be cc 0d 93 3e fd 6e e4 3d
       -0.14698572 -0.26827198 0.28721464 0.11153982
000240 bc b2 d2 3b 88 91 6f be 52 2f 74 3d 9d 1a f0 bd
       0.006429998 -0.2339536 0.05961544 -0.11723826
000250 f4 fe f3 bd e0 91 c3 bd 4c df 87 3c 92 4a a2 bd
       -0.11913863 -0.09549308 0.016585968 -0.079243794
000260 bd df 7f 3d b2 8e 70 3d a6 e1 e3 3d d3 d4 2e 3e
       0.062469233 0.058729835 0.111270234 0.17073373
000270 60 a6 2a bd 51 69 1c be 53 c2 2b 3d d7 23 5c bd
       -0.041662574 -0.1527455 0.04193337 -0.053745117
000280 be bc 71 3d e7 ad 47 3e 7e 4d 85 be 9f 7a 7f bd
       0.05901789 0.19499932 -0.26035684 -0.0623728
000290 fb 70 5f 3e 7b 7f 78 3e e0 59 e4 3d a2 9a 38 3e
       0.21820442 0.2426738 0.11149955 0.18027738
0002a0 60 3c 9f 3b f5 7b 3a 3e 6d 32 d9 3d 8e 51 c0 bd
       0.004859492 0.18211348 0.10605321 -0.09390555
0002b0 ba a3 f6 bd 13 28 d3 bd bf 9a 07 3e 76 0d 10 3e
       -0.12042947 -0.10310378 0.13242625 0.14067635
0002c0 63 cd d0 3c aa 5f 28 3d 21 77 e6 3d a4 73 1a 3e
       0.025488561 0.041106857 0.11253191 0.15083176
0002d0 b6 4d 43 3e 44 d8 98 3c 57 a4 df 3d 31 61 5a bd
       0.19072613 0.018657811 0.10920017 -0.053315345
0002e0 e5 2b 54 be 90 f0 c9 bd 7a 9b 93 bd 00 b3 9d bd
       -0.2071987 -0.09860337 -0.07207389 -0.07700157
0002f0 eb 0d 5a be 32 ec 2b 3d 05 ec 14 3d 71 5a 0f 3d
       -0.21294372 0.0419733 0.0363579 0.03499836
000300 49 bf aa bd 29 10 18 be d2 f2 56 bc dc d8 9a be
       -0.08337266 -0.14849915 -0.013119416 -0.30243576
000310 c8 ba 8d 3e 2b 7c e1 3e 0c eb 46 be e5 78 a3 3e
       0.27681565 0.44040045 -0.19425601 0.31928173
000320 e6 6c b1 3d 40 1e 43 3d 41 e9 3d bd 50 d9 99 bd
       0.08663349 0.04763627 -0.046365026 -0.07512152
000330 57 7e af bd bf 02 fa bd 70 09 40 3e 9e b6 37 3e
       -0.08569019 -0.12207555 0.187536 0.17940757
000340 e4 a7 3d 3c 98 9c 02 bd 66 d3 60 3e 3d b1 8d be
       0.011575673 -0.03188762 0.21955642 -0.27674285
000350 6b de 83 bd a2 75 09 be 4c f8 3b 3e d6 11 2d 3e
       -0.06438907 -0.1342378 0.18356436 0.16901335
000360 e2 7e ac 3d 84 bc 20 be 83 6c eb 3d 5a 95 9d 3d
       0.084226385 -0.15696913 0.11495306 0.07694502
000370 d1 c7 1d 3e b9 0a 10 be 68 0b 70 bd b4 e2 b4 bd
       0.15408255 -0.1406659 -0.058604628 -0.08832303
000380 10 20 92 3d 7e e7 9f 3d 6e f2 61 3e ea e9 64 3d
       0.07135022 0.078078255 0.22065136 0.05588714
000390 cc 4f f5 3d 5e a0 3a bb af c3 c4 3d b2 b0 46 bd
       0.11978111 -0.0028476934 0.09607636 -0.048508354
0003a0 6e 39 e2 3c 8e 44 5d bc b9 10 b6 bd ae 56 a8 3b
       0.027615275 -0.013505114 -0.08889908 0.005137286
0003b0 ae 61 39 bc 8a f7 fd bc da 6a 98 36 60 19 90 3c
       -0.011314793 -0.031001825 4.542392e-06 0.017590225
0003c0 f9 b1 9e be 10 a5 9d 3c fe 9b df 3b 8a 88 18 3e
       -0.30995157 0.019243747 0.0068240156 0.14895836
0003d0 32 bb 53 3e 89 9d 64 3c 01 c1 5e 3d 2e 01 88 3b
       0.20676878 0.013953575 0.05438328 0.0041505313
0003e0 25 ab 73 bb 0b cc 86 bd 50 ba 6a bd 40 ba d8 3d
       -0.0037180868 -0.06581887 -0.057306588 0.10582399
0003f0 a8 2b 0e 3d 03 53 3a 3d 78 d7 ad bd b5 3f 96 bd
       0.034709603 0.045489322 -0.08488363 -0.0733637

fc4.bias f4 [30]
000000 a1 fa 12 bd 8c 73 39 3e 01 26 03 3d 2c 4d 52 be
       -0.03588355 0.18110484 0.032018665 -0.20537251
000010 1e c7 32 be bd a2 35 be e4 70 2b be 51 b0 a1 bd
       -0.1745877 -0.17737861 -0.16742283 -0.07894958
000020 81 05 19 3e 96 72 c9 bc 43 ae 36 3d eb c8 63 3d
       0.14943506 -0.024590772 0.044599783 0.055611532
000030 bf f8 74 bd 7b 1e a5 3d 30 85 6f bd e8 19 9e bd
       -0.059807535 0.08062454 -0.058476627 -0.07719785
000040 4e 5c ab 3d e8 07 a6 bd e2 bb 19 be 01 da ab 3d
       0.08367215 -0.08106977 -0.15013078 0.0839119
000050 49 2d 1d 3e c8 43 3c be 99 ea 06 3d d6 c1 7d bd
       0.15349306 -0.18385231 0.032938574 -0.061952434
000060 0f 57 ff 3d 4d 7b ab 3d 2c 0a 6a bd 13 0c 18 be
       0.12467777 0.08373127 -0.057138607 -0.14848356
000070 da 09 5d 3d c0 f7 2a bf
       0.053964473 -0.66784286
