models/best_models/anomaly_weighted/model_randomstate_0_epochs_3000.pkl (torch_old, 6016 bytes, 18 tensors)

fc1.weight f4 [10, 30]
-0.11579327 -0.23624527 0.18380246 0.09926227 -0.043395456 -0.09890022 -0.06395203 0.30168113
0.044428255 0.028109724 0.061401267 -0.037525553 0.029788768 -0.05034338 0.048439257 -0.047820117
-0.07456787 -0.05277377 0.03148325 -0.14195906 0.21023044 -0.0725298 -0.006456125 -0.040750235
0.033204436 0.003237653 -0.007262124 -0.042391658 0.11484099 -0.37138394 0.12185666 -0.14583069
0.10257321 0.061080433 -0.1557192 0.018682633 -0.049573846 -0.38752967 -0.08396312 0.062237825
-0.06193966 0.17755707 -0.0035709303 0.22211556 0.0044901017 0.17194554 0.3504117 0.084563754
-0.07953758 0.07610538 -0.019622393 -0.071777634 0.010031212 -0.15979914 0.10741452 -0.08044796
-0.005642472 -0.13122413 -0.033570744 0.27463925 0.14425969 -0.05076207 0.073033355 -0.02728309
0.031142922 0.06860628 0.05190175 -0.27274725 -0.11544506 -0.19469744 -0.04590294 -0.01086918
-0.0060512894 0.050325837 -0.046696834 0.022232588 0.07658308 0.050201137 -0.010266402 0.15618812
0.024312729 0.023719098 0.065398365 0.008188854 -0.13740855 -0.027307581 -0.039870765 -0.061806142
0.30047187 -0.42900342 -0.078408755 0.046730008 -0.08115978 0.087518744 -0.09269788 -0.008713907
-0.10699125 -0.16318329 0.2090008 -0.082649715 0.03131413 0.20072784 -0.012861572 0.13116686
0.18012841 -0.029823244 0.10138 -0.015490887 0.14722557 0.10191032 -0.07988838 -0.08244032
-0.02060188 -0.07297288 -0.11617936 0.05810657 -0.050957598 0.0021379746 0.19476902 -0.6073606
-0.020170832 0.07875712 -0.0926415 -0.087433405 0.11796441 0.36837673 -0.16949955 -0.104710646
-0.033378705 -0.0788144 -0.026829144 -0.07758086 -0.03139065 -0.038810637 0.022932667 -0.016314508
-0.13526922 0.011107602 0.034605514 -0.06581213 0.0111042 -0.043782216 -0.06552693 0.2906948
0.01436705 -0.029569207 0.023887718 0.030700618 -0.16985567 0.10522487 -0.056638457 -0.1368233
0.16015913 0.015552463 0.013660932 0.06432746 -0.03969199 0.29839632 0.013430113 0.012653088
0.021501517 -0.047602963 0.026069345 -0.031606592 0.05252162 -0.024298226 -0.052810095 -0.025189064
0.026939683 -0.09416693 0.15056987 -0.060635097 0.0070861573 0.14252883 0.017035984 -0.017982723
-0.017891502 -0.046856847 0.12109723 0.32344306 -0.00041084335 -0.022490874 0.001874631 -0.027387766
-0.009231754 0.09974632 0.01567381 -0.27202037 -0.05996843 -0.16746902 -0.0214959 -0.0078481445
0.000645258 0.021306869 0.006152112 -0.04185065 0.033819173 0.0143039925 0.052861515 0.14198188
0.06417772 -0.0096255755 0.06698303 0.026498506 -0.15184933 -0.02252348 -0.013786792 -0.003560854
0.29097357 0.62237656 -0.09249218 0.08188867 0.013154317 0.024584448 0.025903082 -0.058636624
0.16826177 0.3446316 0.06401913 0.1478651 0.0017891095 -0.019467453 0.020095585 -0.048165314
0.005115395 -0.019142957 -0.01546298 0.016237741 0.029162968 -0.10036902 0.16215903 -0.017147316
-0.038854223 -0.0069287373 -0.024728788 -0.0015213501 0.007983427 0.022132844 -0.24640106 -0.39701363
-0.18461008 -0.1738569 0.11420672 -0.095276326 0.06856944 0.13866702 0.007838329 -0.11978421
-0.18947199 0.11542962 -0.048687596 -0.07494545 0.016135568 -0.040070962 -0.03320305 -0.023402128
00000000: 0625 edbd 48ea 71be b636 3c3e 044a cb3d
00000010: 6fbf 31bd 338c cabd 48f9 82bd f375 9a3e
00000020: 67fa 353d 5d46 e63c e57f 7b3d 65b4 19bd
00000030: 9307 f43c dc34 4ebd 3e68 463d 07df 43bd
00000040: 0ab7 98bd 4f29 58bd 95f4 003d b75d 11be
00000050: a646 573e 818a 94bd e78d d3bb b8e9 26bd
00000060: 6001 083d ce2e 543b 1df7 edbb e0a2 2dbd
00000070: c131 eb3d 0926 bebe fc8f f93d a454 15be
00000080: e711 d23d 7a2f 7a3d db74 1fbe 520c 993c
00000090: f20d 4bbd 4a6a c6be dbf4 abbd 17ed 7e3d
000000a0: 71b4 7dbd 85d1 353e 4506 6abb 4372 633e
000000b0: b421 933b 7e12 303e 2a69 b33e c32f ad3d
000000c0: 99e4 a2bd 23dd 9b3d 24bf a0bc 2700 93bd
000000d0: f459 243c 63a2 23be 25fc db3d e6c1 a4bd
000000e0: 7ce4 b8bb 9e5f 06be 7a81 09bd 849d 8c3e
000000f0: d0b8 133e e3eb 4fbd 8392 953d c980 dfbc
00000100: 711f ff3c 7381 8c3d ee96 543d 87a5 8bbe
00000110: 766e ecbd c45e 47be b904 3cbd a514 32bc
00000120: e549 c6bb 7722 4e3d 2e45 3fbd 1e21 b63c
00000130: 97d7 9c3d b59f 4d3d 6934 28bc c7ef 1f3e
00000140: 7d2b c73c 8e4e c23c 94ef 853d 8b2a 063c
00000150: d4b4 0cbe 26b4 dfbc 874f 23bd 7028 7dbd
00000160: 73d7 993e 56a6 dbbe c594 a0bd f767 3f3d
00000170: 1937 a6bd 073d b33d 63d8 bdbd c6c4 0ebc
00000180: 3a1e dbbd 8519 27be 4e04 563e 4144 a9bd
00000190: 3f43 003d 998b 4d3e 58b9 52bc 9b50 063e
000001a0: 9573 383e e04f f4bc 51a0 cf3d 7dcd 7dbc
000001b0: 4dc2 163e 5cb6 d03d 859c a3bd 78d6 a8bd
000001c0: 46c5 a8bc ce72 95bd 72ef edbd 2801 6e3d
000001d0: eab8 50bd 431d 0c3b 8871 473e fc7b 1bbf
000001e0: 4d3d a5bc 6a4b a13d d4ba bdbd 4910 b3bd
000001f0: 5397 f13d e09b bc3e 4a91 2dbe 8972 d6bd
00000200: 1cb8 08bd 7269 a1bd cbc8 dbbc b7e2 9ebd
00000210: 7b93 00bd e7f7 1ebd 4add bb3c 01a6 85bc
00000220: 0484 0abe a9fc 353c 83be 0d3d 83c8 86bd
00000230: 64ee 353c fb54 33bd fc32 86bd f3d5 943e
00000240: c663 6b3c 1f3b f2bc 2db0 c33c dd7f fb3c
00000250: a5ee 2dbe 2380 d73d bafd 67bd 681b 0cbe
00000260: c100 243e c2cf 7e3c 1ad2 5f3c 1ebe 833d
00000270: 1194 22bd 67c7 983e fa09 5c3c e64e 4f3c
00000280: f323 b03c 53fb 42bd 618f d53c ea75 01bd
00000290: e920 573d 130d c7bc 664f 58bd 4c59 cebc
000002a0: 9cb0 dc3c 97da c0bd fd2e 1a3e 825c 78bd
000002b0: ff32 e83b 14f3 113e 0c8f 8b3c 8150 93bc
000002c0: 3391 92bc f7ec 3fbd d301 f83d 549a a53e
000002d0: 7666 d7b9 c83e b8bc 2eb6 f53a 4f5c e0bc
000002e0: c840 17bc cc47 cc3d 5d66 803c 4146 8bbe
000002f0: 75a1 75bd 007d 2bbe 2b18 b0bc 8195 00bc
00000300: 8826 293a be8b ae3c a897 c93b 966b 2bbd
00000310: f985 0a3d 4b5b 6a3c 5185 583d b363 113e
00000320: 9c6f 833d 97b4 1dbc 662e 893d 6513 d93c
00000330: 647e 1bbe 2983 b8bc ffe1 61bc 375d 69bb
00000340: 7dfa 943e 1254 1f3f 8a6c bdbd 3fb5 a73d
00000350: 3485 573c 5365 c93c b332 d43c f52c 70bd
00000360: d04c 2c3e 8e73 b03e 761c 833d f369 173e
00000370: 8e80 ea3a 357a 9fbc 7f9f a43c fe48 45bd
00000380: 0b9f a73b b1d1 9cbc 7058 7dbc 0305 853c
00000390: 2de7 ee3c 468e cdbd 040d 263e 8778 8cbc
000003a0: 9b25 1fbd 760a e3bb 0794 cabc 0a68 c7ba
000003b0: ebcc 023c f04f b53c 8f50 7cbe 5f45 cbbe
000003c0: 6d0a 3dbe 8b07 32be 36e5 e93d 3c20 c3bd
000003d0: 226e 8c3d bafe 0d3e 566c 003c 6d51 f5bd
000003e0: f204 42be 5d66 ec3d a56c 47bd 007d 99bd
000003f0: bd2e 843c 7321 24bd ecff 07bd d2b5 bfbc

fc1.bias f4 [10]
0.25536135 0.18549034 0.0053736214 0.19773184 -0.31314024 -0.061650764 0.09160164 0.39080688
0.15405579 0.35058525
00000000: b9be 823e 2ef1 3d3e 3415 b03b 377a 4a3e
00000010: eb53 a0be 8385 7cbd a499 bb3d d717 c83e
00000020: cdc0 1d3e e97f b33e

fc21.weight f4 [2, 10]
-0.010636608 -0.11243769 0.42827934 0.21801198 0.26785046 -0.0067693945 -0.51339626 0.8311713
0.1977748 -0.14149046 -0.7044217 0.17906503 -0.12547922 -0.053593483 0.5057366 0.295188
-0.017751131 -0.22999302 -0.12187953 0.08999997
00000000: 2b45 2ebc bb45 e6bd 6e47 db3e 883e 5f3e
00000010: b223 893e ccd1 ddbb f06d 03bf a4c7 543f
00000020: 7a85 4a3e e0e2 10be fb54 34bf d35c 373e
00000030: a07d 00be d784 5bbd f477 013f e222 973e
00000040: d26a 91bc 4a83 6bbe fa9b f9bd e751 b83d

fc21.bias f4 [2]
-1.1565503 0.14027552
00000000: d709 94bf 63a4 0f3e

fc22.weight f4 [2, 10]
-0.34060186 -0.0781183 -0.03027994 0.2422549 -0.25320363 0.11352312 -0.3270568 0.28618842
0.21441947 -0.114056766 -0.2825449 0.019732064 -0.07678631 0.083441004 -0.097457394 -0.12527005
-0.082767844 -0.056673963 0.061419748 -0.049669936
00000000: 5e63 aebe 7dfc 9fbd a30d f8bc ab11 783e
00000010: e8a3 81be cf7e e83d fd73 a7be 4a87 923e
00000020: c790 5b3e 9896 e9bd baa9 90be 23a5 a13c
00000030: 2442 9dbd 1ee3 aa3d be97 c7bd cb46 00be
00000040: 3082 a9bd f522 68bd 4693 7b3d b472 4bbd

fc22.bias f4 [2]
-0.7165475 -0.5138282
00000000: a86f 37bf 3f8a 03bf

batchnorm1.weight f4 [10]
1.0261359 1.0049034 1.1871742 1.0754883 0.67598975 1.029019 1.1351718 1.1134255
0.94561297 1.1153805
00000000: 6c58 833f ada0 803f 53f5 973f 9aa9 893f
00000010: aa0d 2d3f e5b6 833f 4f4d 913f ba84 8e3f
00000020: b113 723f cac4 8e3f

batchnorm1.bias f4 [10]
0.76654065 -0.6112272 -0.23315382 -0.41833952 1.6637324 -0.5052772 0.4470276 1.5146945
-0.5019514 0.68960303
00000000: 023c 443f 6379 1cbf e0bf 6ebe 9930 d6be
00000010: 2ff5 d43f d959 01bf cde0 e43e 82e1 c13f
00000020: e37f 00bf d389 303f

batchnorm1.running_mean f4 [10]
0.67097783 0.18578438 0.497441 0.8213303 0.12127872 0.051815443 0.06254811 0.83149874
0.3721974 0.012567226
00000000: 34c5 2b3f 433e 3e3e 96b0 fe3e b442 523f
00000010: fa60 f83d 6e3c 543d 3919 803d 1add 543f
00000020: a890 be3e c4e6 4d3c

batchnorm1.running_var f4 [10]
0.35330707 0.1872657 0.24047716 0.3458081 0.20839863 0.043578677 0.18179521 0.17024672
0.2945847 0.009174944
00000000: aae4 b43e 94c2 3f3e a53f 763e c20d b13e
00000010: 7366 553e 8e7f 323d 8628 3a3e 2855 2e3e
00000020: ced3 963e 8152 163c

fc3.weight f4 [10, 2]
-0.10671394 -0.53360826 0.60977846 -0.21335684 0.33425376 -0.115207024 -0.18180645 0.27661827
0.2773585 -0.050954144 -0.32707718 -0.057516206 0.23587747 0.71158606 -0.72002184 0.22786862
-0.2444265 0.19997483 0.089813955 0.43490547
00000000: d78c dabd 8d9a 08bf 711a 1c3f 377a 5abe
00000010: 4f23 ab3e a9f1 ebbd 782b 3abe e9a0 8d3e
00000020: ef01 8e3e 4bb5 50bd a976 a7be 1d96 6bbd
00000030: dd89 713e 812a 363f 5a53 38bf 6456 693e
00000040: f14a 7abe 34c6 4c3e 61f0 b73d eeab de3e

fc3.bias f4 [10]
0.5808856 0.10468454 -0.08177559 0.50561064 -0.36658737 -0.33545163 0.28200507 -0.17213486
-0.44660473 -0.47690776
00000000: ebb4 143f d964 d63d f679 a7bd b36f 013f
00000010: 57b1 bbbe 51c0 abbe f862 903e 1f44 30be
00000020: 60a9 e4be 412d f4be

batchnorm3.weight f4 [10]
2.0256672 2.487504 2.283706 1.4863585 1.2715379 1.2245905 1.8683716 1.2217079
1.1487828 1.425843
00000000: 88a4 0140 4433 1f40 3d28 1240 ff40 be3f
00000010: c1c1 a23f 62bf 9c3f cd26 ef3f ed60 9c3f
00000020: 510b 933f 0682 b63f

batchnorm3.bias f4 [10]
-0.11188602 0.05366545 -0.254102 -0.5889053 -0.05479547 0.48623562 -0.07779038 0.40033752
-0.22676668 -0.7931264
00000000: 7f24 e5bd 4ed0 5b3d a819 82be 7fc2 16bf
00000010: 3771 60bd e0f3 f83e 9050 9fbd 0af9 cc3e
00000020: 8635 68be 550a 4bbf

batchnorm3.running_mean f4 [10]
0.44229212 0.3240753 0.10854623 0.5507536 0.015065692 0.003873338 0.5939835 0.12826376
0.0060006655 0.04095502
00000000: 1d74 e23e 33ed a53e 7c4d de3d 30fe 0c3f
00000010: 18d6 763c d4d7 7d3b 4d0f 183f 9357 033e
00000020: 3ba1 c43b 73c0 273d

batchnorm3.running_var f4 [10]
0.119578 0.20074384 0.0404659 0.07490955 0.009296965 0.00155997 0.27313143 0.0638021
0.002773214 0.021642575
00000000: 4fe5 f43d cb8f 4d3e 92bf 253d 2e6a 993d
00000010: 4c52 183c e877 cc3a e2d7 8b3e adaa 823d
00000020: cfbe 353b c54b b13c

fc4.weight f4 [30, 10]
-0.8069305 -1.2529233 1.1778237 0.21698146 -0.56646353 -0.0351257 -0.84855646 -0.17345305
-0.43192345 0.41531807 -1.5180886 0.03040279 0.04690964 -0.845044 0.19774538 0.13207752
-1.1571976 -0.21536373 0.5615079 0.7878139 -0.19137663 0.5296267 -0.55970764 -0.27375618
-0.3142822 -0.27112332 -0.76070243 0.013776086 0.05345259 0.55231494 0.17002513 -1.5098759
2.1741803 0.52325624 -0.94130987 0.23047136 -0.034079164 -0.82193655 0.462698 -0.31639853
0.8097351 0.10600706 -0.20395188 -0.25688514 -0.4209222 -0.6967344 1.485367 0.027400235
-0.19736217 -0.5855702 -0.5018363 0.07227184 0.24962726 0.40841427 -0.24374813 0.509668
-1.014886 -0.22065148 -0.30780125 1.3306661 -0.26114824 0.7198047 -0.44883367 0.49875018
-0.25661287 0.77454394 -0.21496995 -0.40320507 -0.08900611 -0.245283 -0.124831565 -0.045664027
0.041898016 -0.14576219 0.204759 -0.06600696 -0.23560354 0.033916783 -0.95949405 0.40418482
0.03937502 -0.94029105 0.65922344 -0.56374943 0.29888877 -0.033662606 0.27060872 -0.18393232
0.14756155 -0.037114266 -0.0398651 -0.6907357 0.46892574 -0.93432367 0.28291065 -0.2824042
0.37235644 0.6901613 -0.31087682 0.017014477 0.010199018 -0.16946125 0.14220847 -0.025787832
0.015231829 0.00056564587 -0.03716985 -0.0414795 0.0017761627 0.016373625 0.020992192 -0.401618
0.39652196 -0.038889524 0.017706448 0.0023666918 0.044856366 -0.1809659 0.22116806 -0.083802514
0.032681316 0.07868623 0.01416571 0.17798463 -0.039431527 0.0121052535 -0.00395458 -0.0033202062
-0.08468251 -0.046951607 -0.044480655 -0.16880782 0.2880564 0.14497338 -0.0959484 0.06737722
-0.15698108 -0.15299578 0.14804415 0.07106908 -0.0076458086 -0.30959076 0.5009814 0.16173097
-0.20998849 0.047813818 -0.12139522 -0.1310939 -0.0492421 0.13941304 0.05734065 0.19803263
-0.20783812 0.26992068 0.13854893 0.050705213 -0.03044753 -0.14690284 0.06796384 -0.047633313
-0.032905184 -0.0600566 0.11064131 -0.09186299 -0.043458708 -0.025595397 0.003994244 0.13323703
0.01819872 -0.0032465116 -0.014995838 0.009931788 -0.018478718 -0.09618037 -0.02415316 0.0159846
0.04665213 0.031508207 0.022884771 -0.0018543323 0.003276417 -0.0063753803 0.30677983 0.23710096
-0.3703973 -0.013808661 -0.03919935 0.0058008903 -0.08201617 -0.03430891 -0.11174431 -0.5190122
-0.029138966 -1.3244056 0.3200168 0.046910167 0.40906596 0.5230846 0.03953685 0.114571206
-0.016949555 -0.04331451 -0.049342327 -0.21999566 0.014251903 0.025930608 0.07021729 0.11566747
-0.124405086 0.022106666 -0.026859831 0.06979465 -0.0061071655 -0.0071324157 -0.085305005 -0.04673425
-0.038978025 0.047906287 0.04240812 -0.01678071 0.057917584 -0.22573754 0.0779936 -0.3599068
0.04398537 -0.10074828 0.21637121 0.13600442 0.042138558 -0.038801547 0.001288035 0.03489162
0.0005778735 0.09164253 -0.025403546 0.025599357 -0.04917744 -0.03653999 -0.12312033 0.18108083
0.02145209 -0.2640692 0.1669891 -0.104075976 0.113730185 -0.03990279 0.042841125 -0.005146684
0.0009983064 0.034961775 0.009471916 -0.019219203 -0.0026144367 -0.005164068 0.023266004 -0.00071867707
00000000: ff92 4ebf ca5f a0bf edc2 963f 6330 5e3e
00000010: c103 11bf f7df 0fbd ff3a 59bf ad9d 31be
00000020: 1225 ddbe 92a4 d43e ba50 c2bf 460f f93c
00000030: 5324 403d ce54 58bf c47d 4a3e 543f 073e
00000040: 0d1f 94bf 4f88 5cbe fbbe 0f3f 2cae 493f
00000050: 3cf8 43be 9e95 073f 0049 0fbf c529 8cbe
00000060: 99e9 a0be add0 8abe 65bd 42bf 18b5 613c
00000070: 1af1 5a3d 8364 0d3f 111b 2e3e 9d43 c1bf
00000080: c525 0b40 1ff4 053f aff9 70bf af00 6c3e
00000090: 9896 0bbd 6f6a 52bf c1e6 ec3e fdfe a1be
000000a0: cd4a 4f3f 3b1a d93d c3d8 50be 7386 83be
000000b0: 1d83 d7be 305d 32bf 8120 be3f 7576 e03c
000000c0: 4f19 4abe eee7 15bf 5878 00bf 4203 943d
000000d0: 4a9e 7f3e ad1b d13e 1c99 79be 9a79 023f
000000e0: c9e7 81bf 76f2 61be 2098 9dbe 4453 aa3f
000000f0: 39b5 85be 1f45 383f 87cd e5be 2f5c ff3e
00000100: c362 83be 8348 463f 1521 5cbe e570 cebe
00000110: d648 b6bd 772b 7bbe b1a7 ffbd 340a 3bbd
00000120: 419d 2b3d af42 15be 58ac 513e a82e 87bd
00000130: 0e42 71be 53ec 0a3d 67a1 75bf 50f1 ce3e
00000140: b347 213d eab6 70bf dec2 283f e251 10bf
00000150: f307 993e cde1 09bd 3a8d 8a3e c158 3cbe
00000160: 601a 173e 2105 18bd 9649 23bd 0ed4 30bf
00000170: 0917 f03e d62f 6fbf aad9 903e 4997 90be
00000180: 81a5 be3e 69ae 303f 3f2b 9fbe f261 8b3c
00000190: c819 273c 4087 2dbe 199f 113e 0141 d3bc
000001a0: ec8e 793c da47 143a 6a3f 18bd 68e6 29bd
000001b0: 21ce e83a fb21 863c d1f7 ab3c e0a0 cdbe
000001c0: ed04 cb3e 9f4a 1fbd 1d0d 913c 801a 1b3b
000001d0: 4fbb 373d 204f 39be e179 623e a7a0 abbd
000001e0: d8dc 053d 3f26 a13d 4b17 683c 9a41 363e
000001f0: f482 21bd 1d55 463c 6c95 81bb d197 59bb
00000200: 066e adbd 5450 40bd 5931 36bd f5db 2cbe
00000210: 217c 933e e773 143e 9880 c4bd 11fd 893d
00000220: a6bf 20be edaa 1cbe e398 173e aa8c 913d
00000230: b189 fabb ae82 9ebe 5140 003f ce9c 253e
00000240: 3907 57be 6cd8 433d 0f9e f8bd 7b3d 06be
00000250: 16b2 49bd 4bc2 0e3e 08de 6a3d 11c9 4a3e
00000260: 84d3 54be 0b33 8a3e c5df 0d3e 45b0 4f3d
00000270: 196d f9bc b36d 16be a030 8b3d 261b 43bd
00000280: 96c7 06bd e9fd 75bd e997 e23d aa22 bcbd
00000290: c201 32bd 70ad d1bc 26e2 823b 4a6f 083e
000002a0: 7b15 953c 6dc3 54bb 1ab1 75bc f0b8 223c
000002b0: ae60 97bc 37fa c4bd d9dc c5bc 23f2 823c
000002c0: 4e16 3f3d c00e 013d d878 bb3c 110d f3ba
000002d0: 28b9 563b 91e8 d0bb 3f12 9d3e 98ca 723e
000002e0: b7a4 bdbe b93d 62bc 7f8f 20bd 6515 be3b
000002f0: 18f8 a7bd 8087 0cbd 33da e4bd fcdd 04bf
00000300: d7b4 eebc 1f86 a9bf 3ed9 a33e e024 403d
00000310: 1871 d13e dfe8 053f 64f1 213d 4fa4 ea3d
00000320: cbd9 8abc 8e6a 31bd 2e1b 4abd 8b46 61be
00000330: d080 693c 6d6c d43c 15ce 8f3d 11e3 ec3d
00000340: 18c8 febd 0a19 b53c 2609 dcbc 7ff0 8e3d
00000350: 9e1e c8bb 0ab7 e9bb 64b4 aebd 6a6c 3fbd
00000360: 6ca7 1fbd 6239 443d 23b4 2d3d b377 89bc
00000370: fd3a 6d3d be27 67be 1cbb 9f3d b445 b8be
00000380: 012a 343d 1d55 cebd 6a90 5d3e be44 0b3e
00000390: 7b99 2c3d 5fee 1ebd 48d3 a83a 84ea 0e3d
000003a0: 6f7c 173a 14af bb3d 191b d0bc beb5 d13c
000003b0: 496e 49bd f5aa 15bd 8326 fcbd 416d 393e
000003c0: 4bbc af3c 1434 87be 31ff 2a3e c925 d5bd
000003d0: 5feb e83d 1c71 23bd 2d7a 2f3d 84a5 a8bb
000003e0: 9bd9 823a 1434 0f3d 1830 1b3c 9771 9dbc
000003f0: f856 2bbb 5837 a9bb 5998 be3c 9a65 3cba

fc4.bias f4 [30]
0.63265467 0.036086 0.1572535 0.9747321 -0.20750698 0.9817274 -0.3359346 0.022528784
0.02872475 -0.5417709 0.05081867 0.17016056 0.044047624 0.27649602 0.34506017 0.12638329
-0.0566049 -0.07486205 0.15100971 -0.8575739 -0.20721458 -0.019397682 -0.1797455 0.16579574
0.05606748 0.003019325 -0.114738666 0.049966633 -0.466768 -1.0081034
00000000: a8f5 213f eace 133d 1007 213e 0b88 793f
00000010: b67c 54be 7d52 7b3f 9fff abbe 498e b83c
00000020: 2b50 eb3c 7fb1 0abf 3d27 503d 923e 2e3e
00000030: 486b 343d e390 8d3e baab b03e 9f6a 013e
00000040: 8ada 67bd 4651 99bd 4aa2 1a3e f789 5bbf
00000050: 0f30 54be e3e7 9ebc 340f 38be 5cc6 293e
00000060: 04a7 653d dedf 453b 1bfc eabd d0a9 4c3d
00000070: 37fc eebe 8809 81bf
