models/best_models/anomaly_weighted/model_randomstate_1_epochs_3000.pkl (torch_old, 6000 bytes, 18 tensors)

fc1.weight f4 [10, 30]
0	0xbdfc5c17	-0.12322252
1	0x3da08c62	0.07839276
2	0x3e01397e	0.12619588
3	0xbd2fe697	-0.042944517
4	0x3dc22857	0.094803505
5	0x3e0b955d	0.13631196
6	0xbe183d1e	-0.14867064
7	0x3d84203f	0.06451463
8	0x3cc7e506	0.0244012
9	0x3e2d6584	0.16933256
10	0x3e195e32	0.14977339
11	0x3d551ac1	0.052027468
12	0xbdb0c266	-0.086308286
13	0x3caffeb8	0.021483764
14	0xbceae476	-0.028673392
15	0xbd8a1d05	-0.06743816
16	0x3dfb536b	0.1227177
17	0x3c86e581	0.016466858
18	0xbcc8b6d4	-0.024501242
19	0xbdb75c8b	-0.08953198
20	0x3e10a756	0.14126334
21	0x3db7141d	0.08939383
22	0x3c3ccad1	0.011522965
23	0xbd0e7d0a	-0.034787215
24	0xbe0a72d2	-0.13520363
25	0x3d7f741c	0.06236659
26	0xbc955f68	-0.01823397
27	0xbe0271c6	-0.12738714
28	0x3b2e2ad7	0.0026575828
29	0xbb063f17	-0.0020484382
30	0x3d97a5e1	0.07404686
31	0x3dfebf62	0.12438847
32	0xbe4f9420	-0.20271349
33	0x3d958caf	0.07302224
34	0x3dcc19b7	0.09965842
35	0xbd9557d5	-0.07292143
36	0x3de97bfc	0.11400601
37	0x3e3a65eb	0.18202941
38	0x3ce8db71	0.02842495
39	0xbe12adc3	-0.14324097
40	0x3c43f18c	0.011959445
41	0x3e1a748f	0.15083526
42	0xbdca87f4	-0.09889212
43	0x3d19e875	0.037575204
44	0x3d1eec2d	0.038799454
45	0x3dbebe85	0.093136825
46	0xbb9abd5a	-0.0047222795
47	0x3dfc8839	0.1233067
48	0x3c667b0c	0.014067423
49	0xbd09fed5	-0.033690292
50	0xbd285ddf	-0.041105147
51	0x3daa1d90	0.0830642
52	0x3ca8f318	0.020623729
53	0x3d3469bd	0.044046152
54	0x3db4f226	0.08835249
55	0x3dfa6877	0.12226956
56	0xbc8ff2da	-0.017571855
57	0xbd0200ec	-0.03173916
58	0x3dd91c1d	0.10601065
59	0x3e4bfa65	0.19919737
60	0x3e1e00be	0.1542997
61	0x3defaf44	0.11703351
62	0xbbac7ca9	-0.005263884
63	0x3e92797e	0.28608316
64	0xbcb58dc5	-0.022162328
65	0x3df40127	0.11914282
66	0x3d6f809e	0.05847227
67	0x3de1eb54	0.110312134
68	0x3cabd7ab	0.020976862
69	0x3d07a1af	0.033113178
70	0xbc3e272c	-0.011606019
71	0xbbe8dfef	-0.007106773
72	0x3d2a6e1b	0.04160891
73	0xbc9d8de8	-0.019232705
74	0xbc8d9a7d	-0.01728558
75	0xbd033594	-0.032033518
76	0xbd6b1f21	-0.057402734
77	0xbc17a3d3	-0.009255367
78	0xbd96c8a2	-0.073624864
79	0x3dc7a266	0.09747772
80	0xbd459721	-0.04823983
81	0x3d712066	0.05886879
82	0xbca99aa9	-0.02070363
83	0xbd117c3c	-0.03551887
84	0xbc03042a	-0.007996598
85	0x3cd3dea6	0.025863003
86	0xbe077261	-0.13227226
87	0x3ccf33db	0.025293281
88	0xbe680cce	-0.22661135
89	0xbe2b5545	-0.16731746
90	0x3e1f0e42	0.15532783
91	0xbe2eac07	-0.1705781
92	0xbdfaf19b	-0.12253114
93	0xbdab089b	-0.08351251
94	0x3d194741	0.03742147
95	0x3ca3d0b7	0.019996984
96	0xbc9d9b9e	-0.019239243
97	0x3e0527ac	0.13003415
98	0x3dca2806	0.09870915
99	0x3d9ba801	0.076004036
100	0x3ba5dd3e	0.0050617745
101	0x3d87c5f7	0.06629556
102	0xbb88fc8b	-0.004180496
103	0x3d000845	0.031257886
104	0x3d8964bb	0.06708666
105	0xbd855d03	-0.06511881
106	0x3e036fcb	0.12835614
107	0xbd38884f	-0.04505187
108	0x3de07bb1	0.10961092
109	0x3df639cb	0.12022742
110	0x3de72463	0.11286237
111	0x3ccc85c7	0.024966134
112	0xbd8c800c	-0.068603605
113	0xbcafb1b1	-0.021447035
114	0xbdefcab8	-0.117085874
115	0x3d968dd7	0.073512726
116	0x3de8280a	0.11335762
117	0x3cdc1506	0.026865494
118	0x3dd5ebea	0.10445388
119	0x3e16d41c	0.14729351
120	0xbd906836	-0.07051127
121	0xbc95c325	-0.018281529
122	0xbdc2bf69	-0.09509165
123	0xbe06ec2d	-0.13176031
124	0x3d07e61c	0.033178434
125	0x3d933a91	0.07188905
126	0xbe25d355	-0.16193898
127	0x3dd6c514	0.104868084
128	0x3dbe7605	0.09299854
129	0xbde0b9c3	-0.10972931
130	0xbe2f557e	-0.17122456
131	0x3db8abe7	0.09017163
132	0x3b65b23d	0.0035048865
133	0x3e14f71e	0.14547393
134	0x3e36cbab	0.1785113
135	0xbcf44cea	-0.029821832
136	0x3cce580e	0.025188472
137	0xbdf7520c	-0.12076196
138	0x3cfc5777	0.030803425
139	0x3e0e823d	0.1391687
140	0x3e23bf7e	0.15991017
141	0x3e1cc959	0.15311183
142	0x3e0c3ce6	0.13695106
143	0x3d9fde89	0.07806117
144	0xbdca052d	-0.098642685
145	0x3e3180d9	0.17334308
146	0x3dab7924	0.08372715
147	0x3cb9372b	0.022609314
148	0x3e43824a	0.1909267
149	0xbdda0e61	-0.10647274
150	0xbe46f369	-0.19428791
151	0x3cde41ec	0.027131043
152	0x3dd43e49	0.103634425
153	0x3a023ba5	0.0004967994
154	0xbd16439d	-0.036685575
155	0xbceb8e32	-0.028754327
156	0x3dd5f860	0.104477644
157	0xbda5533d	-0.08072517
158	0x3d4fdcdd	0.05074774
159	0x3dec540c	0.11539468
160	0xbdaadb17	-0.08342569
161	0x3da222e7	0.07916813
162	0x3d2dea89	0.04246
163	0x3dedbd0a	0.11608322
164	0x3c21fa03	0.009886268
165	0x3e1970e5	0.14984472
166	0x3dc6f84d	0.09715328
167	0x3d454c56	0.048168503
168	0xbba0d0e6	-0.004907715
169	0xbd41f271	-0.04735035
170	0xbe83a92f	-0.25715014
171	0xbd1c79ab	-0.03820197
172	0xbd7d9be8	-0.061916262
173	0x3cfeadf3	0.031088805
174	0x3da82a05	0.082111396
175	0xbe0288bd	-0.12747474
176	0xbe34de0a	-0.17662826
177	0x3cb159ca	0.02164926
178	0x3d6b7a95	0.05748995
179	0xbdb9ae09	-0.09066398
180	0xbe1b640b	-0.15174882
181	0xbe150b25	-0.14555033
182	0xbe2dd0b5	-0.16974147
183	0x3d7d120a	0.06178478
184	0xbe1ab4ee	-0.15108082
185	0xbc1fd133	-0.009754467
186	0x3c1538bb	0.009107764
187	0x3c879396	0.016549867
188	0x3d5ac9e7	0.053415205
189	0xbe044f89	-0.12920965
190	0x3e0be0b5	0.13659938
191	0xbc2c59a1	-0.010519416
192	0x3b5e0881	0.003387958
193	0xbdadf46a	-0.08493884
194	0xbd4b94d6	-0.049702488
195	0xbe2f0f7e	-0.17095754
196	0x3dfc2c54	0.123131424
197	0x3c6af94b	0.014341663
198	0x3c9116d2	0.017711077
199	0x3e2b0323	0.16700415
200	0x3e29d1a7	0.16583882
201	0x3e25c01b	0.16186564
202	0xbdb1dcc2	-0.08684684
203	0xbd9dcd40	-0.07705164
204	0xbd25c5be	-0.040471785
205	0x3e28dc88	0.16490376
206	0x3d923a82	0.07140066
207	0xbddb3346	-0.10703139
208	0x3e17f354	0.14838916
209	0xbda14cfd	-0.078760125
210	0xbd7c0c82	-0.061535366
211	0x3dcc8fa6	0.09988336
212	0xbdf6207f	-0.12017917
213	0x3e321293	0.17389898
214	0x3dd7b8c4	0.10533288
215	0x3ba5dc20	0.0050616413
216	0xbd172817	-0.036903467
217	0xbcfd4b4a	-0.03091969
218	0xbbf59e25	-0.007495659
219	0x3e447d10	0.19188333
220	0xbe12e7c8	-0.1434623
221	0x3b8e6e27	0.0043466273
222	0x3dbe5874	0.09294215
223	0xbd64f242	-0.055895098
224	0xbe0f5c82	-0.14000133
225	0xbdb044ef	-0.08606898
226	0xbe2f58ed	-0.17123766
227	0x3d6232dc	0.055224285
228	0x3dbe717d	0.0929899
229	0xbe3f8cb3	-0.18706016
230	0xbe065284	-0.13117415
231	0x3d26a62c	0.040685818
232	0xbdab99e2	-0.0837896
233	0xbd6c700a	-0.057724036
234	0xbe3048ed	-0.17215319
235	0x3e35f291	0.17768313
236	0xbe35d176	-0.17755684
237	0x3c79616f	0.015220984
238	0x3e251a9a	0.16123429
239	0xb8d9f382	-0.00010392723
240	0xbd8795b8	-0.066203535
241	0x3e20befd	0.15697856
242	0xbdf47bd1	-0.119376786
243	0x3e4bb27f	0.1989231
244	0xbd853369	-0.06503946
245	0x3ca5d230	0.020241827
246	0x3cb97eb7	0.02264343
247	0xbd18828b	-0.03723387
248	0xbe1e0dc4	-0.15434939
249	0xbdc63e50	-0.09679854
250	0xbe2d3968	-0.1691643
251	0x3d801acc	0.06255111
252	0xbdb330e4	-0.087495595
253	0xbd2f0142	-0.04272581
254	0xbe14ffba	-0.14550677
255	0x3d3480da	0.044068195

fc1.bias f4 [10]
0	0x3e287ab2	0.16453055
1	0xbc7eb412	-0.015545862
2	0x3e1b17a5	0.15145738
3	0x3d8c97c0	0.068648815
4	0x3e1fb3ea	0.15595976
5	0x3da66a40	0.08125734
6	0x3e3be6d1	0.18349768
7	0x3d67c8f6	0.056588136
8	0xbdff1c24	-0.12456539
9	0x3d6f4e66	0.058424376

fc21.weight f4 [2, 10]
0	0x3deadb1a	0.114675716
1	0xbd3cedbc	-0.04612516
2	0x3eddfca9	0.43356827
3	0x3bf45308	0.007456187
4	0x3c9d617e	0.019211527
5	0xbe065f90	-0.13122392
6	0xbeb34268	-0.350116
7	0x3b4e56ce	0.0031484845
8	0x3e15c44b	0.14625661
9	0x3e0b0614	0.13576537
10	0x3eab6c40	0.33481026
11	0xbe15df8c	-0.14636058
12	0xbe0cf189	-0.13764013
13	0xbe9298e4	-0.2863227
14	0x3e0b0b40	0.1357851
15	0x3ebc8802	0.36822516
16	0xbe00fa52	-0.1259549
17	0x3d99e3d4	0.07514158
18	0x3e019571	0.12654664
19	0x3bdefc56	0.006804983

fc21.bias f4 [2]
0	0x3dd188a9	0.10231144
1	0x3d6d0260	0.057863593

fc22.weight f4 [2, 10]
0	0x3d5ada79	0.053431008
1	0xbc23a2bb	-0.009987528
2	0x3e9f030b	0.3105701
3	0x3d84017a	0.06445594
4	0xbd8aaedc	-0.06771633
5	0x3cf7cc3e	0.030248757
6	0xbea31aca	-0.31856376
7	0xbd6966b4	-0.05698271
8	0x3e195e92	0.14977482
9	0x3d689bc4	0.056789175
10	0x3e04b6c6	0.12960348
11	0xbe3df167	-0.18549119
12	0xbd31a331	-0.043368522
13	0xbe3ea24a	-0.18616596
14	0x3e8ae121	0.27124885
15	0xbe30a2d0	-0.17249608
16	0x3d2e74e8	0.04259196
17	0x3e2aa6ef	0.16665243
18	0x3e42a7ba	0.19009295
19	0x3e33b5ac	0.17549771

fc22.bias f4 [2]
0	0xbf255f5f	-0.6459865
1	0x3e7b9ad4	0.24570781

batchnorm1.weight f4 [10]
0	0x3f7a9d4c	0.97896266
1	0x3f8cc865	1.0998656
2	0x3f81f439	1.0152656
3	0x3f82c837	1.0217351
4	0x3f7b63c4	0.98199105
5	0x3f8561df	1.0420493
6	0x3f7cd7d5	0.98766834
7	0x3f7b7dee	0.9823903
8	0x3f7ae808	0.980103
9	0x3f7baad9	0.9830757

batchnorm1.bias f4 [10]
0	0xbd29c31a	-0.04144583
1	0x3d69c9f2	0.057077356
2	0x3d089a28	0.03335014
3	0x3d25319b	0.04033051
4	0xbd27e81b	-0.040992837
5	0x3d229a20	0.039697766
6	0xbd075958	-0.03304419
7	0xbd217739	-0.03942034
8	0xbd239bf3	-0.039943647
9	0xbd1e575c	-0.03865753

batchnorm1.running_mean f4 [10]
0	0x3e98d9c4	0.29853642
1	0x3dfe90f2	0.1242999
2	0x3edcfc72	0.4316135
3	0x3e3e4756	0.185819
4	0x3eba3870	0.36371183
5	0x3e8d7f96	0.27636403
6	0x3eaf762e	0.3426985
7	0x3e692cb3	0.22770958
8	0x3e506d39	0.20354165
9	0x3e7f3d72	0.24925783

batchnorm1.running_var f4 [10]
0	0x3e290367	0.16505204
1	0x3d8cc010	0.068725705
2	0x3e3b276a	0.18276754
3	0x3deb3f8f	0.11486732
4	0x3e787dc7	0.2426673
5	0x3e4aaf5a	0.19793454
6	0x3eefd8be	0.4684505
7	0x3e21fa1e	0.15818068
8	0x3e1d942b	0.15388553
9	0x3e23d10f	0.15997718

fc3.weight f4 [10, 2]
0	0x3cac1860	0.021007717
1	0xbddb1fff	-0.10699462
2	0xbf0c0bde	-0.5470561
3	0xbe249b71	-0.16074921
4	0x3e437e8d	0.19091244
5	0x3e102304	0.14075857
6	0xbed42bed	-0.41439763
7	0x3dd63159	0.10458631
8	0xba2ac6a9	-0.0006514588
9	0x3f14583f	0.5794715
10	0x3ee40b40	0.44539833
11	0x3f345cd3	0.7045414
12	0x3e2bc5ef	0.16774724
13	0xbdaf38b2	-0.08555736
14	0x3e388199	0.18018188
15	0xbdeeac92	-0.11654009
16	0xbf3fa66b	-0.7486331
17	0x3e35e4f7	0.17763124
18	0x3d235c2e	0.03988283
19	0xbe04633c	-0.1292848

fc3.bias f4 [10]
0	0x3dceb26f	0.10092627
1	0xbd156946	-0.03647735
2	0x3f09f560	0.5389004
3	0xbe15e188	-0.14636815
4	0x3dd0baa8	0.10191852
5	0xbe73cc17	-0.23808323
6	0xbf482655	-0.7818349
7	0x3f78c354	0.9717305
8	0x3eff93d7	0.4991748
9	0xbf20f7c7	-0.6287808

batchnorm3.weight f4 [10]
0	0x3f82750a	1.0191967
1	0x3f84f0d6	1.0385997
2	0x3f78b691	0.97153574
3	0x3f8b87b9	1.0900794
4	0x3f8d26f1	1.1027509
5	0x3f759760	0.95934105
6	0x3f6a2513	0.9146282
7	0x3f895b89	1.0731059
8	0x3f7437f8	0.953979
9	0x3f737bed	0.9511097

batchnorm3.bias f4 [10]
0	0x3ea5f82c	0.32415903
1	0x3e6e1de0	0.23253584
2	0x3e916366	0.28396147
3	0xbea46407	-0.32107565
4	0xbf0a112d	-0.5393246
5	0x3e711978	0.23544872
6	0xbe24da28	-0.16098845
7	0xbea16886	-0.31525058
8	0x3e6c805b	0.23095839
9	0x3f03353d	0.5125311

batchnorm3.running_mean f4 [10]
0	0x3d8d6c6e	0.06905447
1	0x3cf795d4	0.03022281
2	0x3f3606b6	0.7110399
3	0x3ce438d7	0.027859135
4	0x3efa478f	0.4888272
5	0x3f01846d	0.5059269
6	0x2229a607	2.2991665e-18
7	0x3f7d4fac	0.98949695
8	0x3eba6c05	0.36410537
9	0x2b728a24	8.616738e-13

batchnorm3.running_var f4 [10]
0	0x3b8d4ab3	0.0043118834
1	0x3cd2ea75	0.025746563
2	0x3d68450b	0.05670647
3	0x3ce377cf	0.02776709
4	0x3f13c666	0.57724607
5	0x3f592ebf	0.84836954
6	0x2093ca9b	2.5036842e-19
7	0x3cfe1930	0.03101787
8	0x3e58f781	0.21188165
9	0x29cb6281	9.032099e-14

fc4.weight f4 [30, 10]
0	0x3ddf5ac5	0.10905985
1	0x3d19646e	0.037449293
2	0xbe90dce4	-0.28293526
3	0xbf22ca40	-0.6358986
4	0xbef9acb0	-0.48764563
5	0xbe94a31d	-0.29030696
6	0xbe3f0e0a	-0.18657699
7	0x3f07a8ed	0.52992135
8	0xbe57c7c7	-0.21072303
9	0xbc3043b5	-0.01075833
10	0x3cffb8e3	0.03121609
11	0xbf1420a1	-0.5786229
12	0x3dece7b8	0.11567634
13	0xbe55db86	-0.20884523
14	0x3e84b88e	0.25922054
15	0x3e1918ef	0.14950918
16	0x3de97c26	0.114006326
17	0xbe734ffb	-0.23760979
18	0xbee29bff	-0.4425964
19	0xba8b5d8c	-0.0010632738
20	0xbf6b84cd	-0.9199951
21	0x3d427af6	0.047480546
22	0x3e334912	0.17508343
23	0xbee5fbb2	-0.4491859
24	0xbd375190	-0.04475552
25	0xbe2247c7	-0.15847693
26	0xbdb2eb99	-0.08736343
27	0x3e8f4164	0.27979577
28	0x3dc51a8f	0.09624206
29	0x3eb5e6d6	0.35527676
30	0xbd3890b1	-0.045059863
31	0x3e7d43a5	0.24732836
32	0x3eca7557	0.39542648
33	0x3ee7524e	0.4517998
34	0xbd65585b	-0.055992465
35	0x3ead1f8b	0.33813128
36	0x3b805d1a	0.0039173486
37	0x3f5937ee	0.84850967
38	0xbda3b55f	-0.07993578
39	0x3e352743	0.17690758
40	0x3d0c6f49	0.034285817
41	0xbda5378d	-0.08067236
42	0xbdc8e214	-0.09808746
43	0xbeb6a7a4	-0.35674775
44	0xbce0dc33	-0.02744875
45	0x3e9e7084	0.30945218
46	0xbc7d7972	-0.015470849
47	0x3c19210c	0.009346258
48	0xbd97475a	-0.07386656
49	0x3db2f7f7	0.08738702
50	0xbcfe8c88	-0.03107287
51	0x3e84309f	0.25818345
52	0x3ede1f48	0.4338324
53	0x3e424638	0.18972099
54	0x3e5e8ea0	0.21734095
55	0xbcc5a2cc	-0.02412548
56	0xbd88b840	-0.06675768
57	0x3e8bff8f	0.27343413
58	0xbdee4e5f	-0.11636042
59	0x3dc57a5c	0.09642479
60	0xbe9f2dde	-0.3108968
61	0x3e6bb5e5	0.23018606
62	0xbd6f8510	-0.058476508
63	0x3eaabb28	0.33345914
64	0xbe8df961	-0.27729324
65	0x3d65b402	0.056079872
66	0xbd3d21ed	-0.046174932
67	0x3e5a0978	0.21292675
68	0x3c94bea2	0.018157307
69	0x3de84ac1	0.11342383
70	0xbec179bf	-0.37788197
71	0xbe1980ec	-0.14990586
72	0xbea94c96	-0.33066243
73	0x3e344388	0.17603886
74	0xbdb625e8	-0.08893949
75	0xbc33d3c2	-0.01097578
76	0xbe187d0f	-0.14891456
77	0x3e9c53f9	0.30532816
78	0xbd16d66a	-0.036825575
79	0x3e21467a	0.15749541
80	0x3ec6275f	0.38701913
81	0xbd9857c5	-0.07438616
82	0xbd1560f5	-0.03646942
83	0x3d2bbd02	0.0419283
84	0x3eaf2316	0.34206456
85	0xbc962866	-0.01832981
86	0x3db3a4a9	0.08771641
87	0xbdf29251	-0.11844314
88	0xbdf37cb9	-0.11889023
89	0xbc2baa5c	-0.010477629
90	0x3e9990a4	0.29993165
91	0xbe181310	-0.14851022
92	0x3e5c32b6	0.2150372
93	0x3d8348b9	0.06410355
94	0x3e2dfc28	0.16990721
95	0x3e483ea7	0.1955515
96	0xbe29bc6b	-0.16575782
97	0x3db8d671	0.090252765
98	0x3e60f8a8	0.21969855
99	0xbded9cc6	-0.11602168
100	0x3dbc11a9	0.09183056
101	0x3c92b7d8	0.01790993
102	0xbe06111d	-0.13092466
103	0xbd7e4869	-0.062080774
104	0x3d95635e	0.072943434
105	0x3d0b9036	0.034073077
106	0x3e387bb9	0.18015946
107	0xbd954a95	-0.07289616
108	0xbd8aae76	-0.06771557
109	0x3e383eb5	0.17992671
110	0x3e4d2fb5	0.2003773
111	0xbdb96da2	-0.09054114
112	0x3dd9f504	0.10642436
113	0x3e41f2c9	0.18940271
114	0x3e19ae62	0.15007928
115	0xbde9d108	-0.11416823
116	0xbe2cac51	-0.16862608
117	0xbd7f0fdd	-0.062270988
118	0xbdb1462d	-0.08655963
119	0xbc3b58c0	-0.011434734
120	0xbd565ebe	-0.052336447
121	0xbd7af2f2	-0.061266847
122	0x3da2b5c7	0.079448275
123	0x3e2b695e	0.16739413
124	0xbc30937e	-0.010777352
125	0xbe238ef4	-0.15972501
126	0xbaa983a7	-0.0012932912
127	0x3d8b4bf5	0.06801597
128	0x3c1246fc	0.008928057
129	0xbc95c8e1	-0.018284263
130	0xbe20a07f	-0.15686224
131	0x3d7a0b8c	0.06104617
132	0xbd7e1431	-0.062030975
133	0x3dba4d88	0.09096819
134	0xbd2fe2b8	-0.042940825
135	0x3d180455	0.037113506
136	0xbe59e7cd	-0.21279831
137	0x3d0691a2	0.03285373
138	0xbde74664	-0.11292723
139	0x3e1e1547	0.15437804
140	0x3d3b330d	0.045702983
141	0xbc0ead57	-0.00870832
142	0x3e2ac766	0.16677627
143	0x3e049e5f	0.12951039
144	0xbdf3037e	-0.118659005
145	0xbe32d14d	-0.17462654
146	0xbd1310f0	-0.035904825
147	0xbe9335fe	-0.2875213
148	0xbe7c90ad	-0.24664564
149	0x3d9410b5	0.07229749
150	0x3d379aa0	0.044825196
151	0xbe11d32c	-0.14240712
152	0xbd8bd96b	-0.068285786
153	0x3deb336d	0.11484418
154	0x3d4ba9fd	0.04972266
155	0x3d000bb7	0.031261172
156	0xbdf2ec1c	-0.118614405
157	0x3e2b5fea	0.16735807
158	0x3e47cc56	0.19511542
159	0x3eaf39f0	0.3422389
160	0x3e3b1ded	0.18273135
161	0x3d61abba	0.05509541
162	0x3cc8de58	0.024520084
163	0xbced83f5	-0.028993586
164	0x3e538ab6	0.20658383
165	0xbd979a7f	-0.07402515
166	0x3e405167	0.18781053
167	0xbde7d81c	-0.113205165
168	0xbdabe8cd	-0.083940126
169	0xbc5c3e0f	-0.01344253
170	0x3d53308b	0.051559966
171	0x3d3d3eea	0.046202578
172	0xbd69a91f	-0.057046052
173	0xbe1b9105	-0.1519204
174	0x3ddc7750	0.107649446
175	0x3d25be04	0.040464416
176	0x3cef4d95	0.029211799
177	0x3de33110	0.11093342
178	0x3e504653	0.20339327
179	0xbe5a8d86	-0.2134305
180	0xbda58026	-0.08081083
181	0x3c984604	0.018588074
182	0xbe82dd6c	-0.25559556
183	0xbbedcedc	-0.0072573256
184	0x3d43288b	0.047646087
185	0x3dff66dd	0.124707915
186	0xbda5853a	-0.080820516
187	0xbd8a44c8	-0.067514
188	0xbe7d89c1	-0.2475958
189	0x3e9cc648	0.30620027
190	0xbdfc0c87	-0.12307077
191	0x3ebe7e51	0.37205747
192	0xbe28e629	-0.16494049
193	0xbe1494ea	-0.14509931
194	0xbcbf397f	-0.023342846
195	0x3debc131	0.11511458
196	0x3e44e795	0.19228967
197	0x3b385d82	0.0028131907
198	0xbe007da9	-0.12547936
199	0x3ca5775e	0.02019852
200	0xbb9da411	-0.004810818
201	0x3da4ac60	0.080406904
202	0x3d2484e2	0.04016579
203	0x3d87bebe	0.06628178
204	0xbd54dea3	-0.051970135
205	0xbd0a97f5	-0.033836324
206	0x3c82d8d8	0.01597254
207	0xbda6ccf8	-0.081445634
208	0xbe01f369	-0.1269051
209	0x3e5a9b88	0.21348393
210	0x3dd502a8	0.10400897
211	0xbd376b65	-0.044780154
212	0x3e2ebd80	0.17064476
213	0xbd9087f1	-0.07057179
214	0xbd9e1dae	-0.07720505
215	0x3c7b3fee	0.015335066
216	0xbdbb23c0	-0.09137678
217	0xbd5ef3ea	-0.054431833
218	0x3e163232	0.14667585
219	0xbe3e3af1	-0.18577172
220	0x3c92ec97	0.01793508
221	0xbd9151e7	-0.070957
222	0x3e0e2427	0.13880979
223	0x3ca17960	0.019711196
224	0xbd25684d	-0.040382672
225	0xbe085136	-0.1331223
226	0xbe583646	-0.21114454
227	0xbd9892d3	-0.074498795
228	0x3c86534d	0.016397143
229	0xbdded01d	-0.10879538
230	0x3a8a2a96	0.0010541256
231	0x3d2bc134	0.0419323
232	0xbd665ff5	-0.056243856
233	0xbdd0f80a	-0.1020356
234	0x3d8082ba	0.06274934
235	0x3cf4c29d	0.029877955
236	0x3d9cf524	0.07663944
237	0x3d7c5f82	0.06161452
238	0x3dac095d	0.084002234
239	0xbd875e0d	-0.06609736
240	0x3dd95358	0.106116
241	0xbddefd27	-0.10888129
242	0x3de4cc54	0.11171785
243	0x3d186c5a	0.037212707
244	0xbd42d239	-0.047563765
245	0xbbe1d808	-0.006892208
246	0xbda77899	-0.08177299
247	0x3ce11f4b	0.027480742
248	0x3e32ca22	0.1745992
249	0x3d49b74d	0.049247075
250	0xbab5928f	-0.0013852882
251	0x3c800862	0.015628997
252	0xbe1826c2	-0.14858535
253	0x3cabdfaa	0.020980675
254	0x3dd29168	0.1028164
255	0x3c87d921	0.016583027

fc4.bias f4 [30]
0	0xbe2a4a51	-0.16629912
1	0x3e2cc204	0.16870886
2	0xbca87e5e	-0.02056807
3	0x3d86ae97	0.06576269
4	0xbe4ab504	-0.19795614
5	0x3d893805	0.06700138
6	0x3bb4083d	0.005494146
7	0x3e843ca4	0.25827515
8	0x3df3508d	0.11880598
9	0xbd046236	-0.032320224
10	0xbd8b5a82	-0.06804372
11	0x3db675e9	0.08909208
12	0x3e00f15d	0.12592073
13	0xbc16da99	-0.009207391
14	0xbdf6c422	-0.12049128
15	0xbdad5790	-0.08463967
16	0x3d916d51	0.071009286
17	0x3dbd8b75	0.09255115
18	0xbd3cf410	-0.046131194
19	0xbcf7606c	-0.030197345
20	0xbe069541	-0.13142873
21	0xbde9acd3	-0.11409917
22	0xbc8eaf01	-0.017417433
23	0x3d3c3f35	0.045958716
24	0xbdfbe040	-0.12298632
25	0x3de55b91	0.111991055
26	0x3dc6239c	0.09674761
27	0x3e2446b7	0.160426
28	0xbe81bf58	-0.25341296
29	0xbe85ae69	-0.26109627
