models/best_models/anomaly_weighted/model_randomstate_2_epochs_3000.pkl (torch_old, 6004 bytes, 18 tensors)

fc1.weight f4 [10, 30]
-0.15329134 -0.05456772 0.12615016 -0.14642538 0.14758745 -0.07160261 -0.112199426 0.16175994
0.03252611 -0.03320265 -0.091268055 0.11097465 0.017493559 0.004252354 -0.088589296 -0.030573234
-0.029222228 -0.041173555 -0.06891074 -0.18557714 -0.08070245 0.07406085 0.12398867 -0.06016282
-0.059701122 0.041717958 0.047082398 -0.108902775 0.26403877 0.14559308 -0.0043478413 0.16025914
0.0059939125 0.08773989 -0.02318628 0.011398794 -0.13830414 -0.12999314 0.12719962 -0.14069197
0.157709 -0.088126644 0.11889968 -0.15673561 -0.100700624 0.16731775 0.045056976 -0.19868182
-0.15991674 -0.03745329 0.08998739 -0.14969397 -0.09974565 0.11485908 -0.084186286 0.16363429
-0.014694514 0.041031357 -0.06352153 0.10619014 0.042615816 0.112816386 -0.0015928978 0.23621985
-0.08684523 0.011123216 0.0046746996 0.10704446 -0.21868399 0.110238515 0.049431708 0.013611539
-0.1063666 -0.079853535 -0.063691825 -0.049346507 -0.17026411 0.11229633 0.08435083 -0.08419071
-0.014104238 0.14900394 0.06930145 -0.033182897 -0.07732572 -0.14695308 -0.026518553 -0.06572268
0.044453133 0.09965108 -0.17715098 0.22929487 0.11924014 0.03050871 -0.077263534 -0.037224494
0.1143877 -0.08111567 0.0954802 -0.04958419 0.020233389 0.031011831 -0.03690851 0.13199368
0.054867093 -0.063261285 -0.1626003 0.0088712005 0.08266175 -0.08370016 0.016148651 -0.039875
0.08984564 -0.08226548 0.010122696 -0.011930067 0.0234488 0.061072726 0.011555053 -0.30520663
-0.04588285 0.0700551 -0.12317548 0.024623645 0.033903252 -0.016342942 0.14358748 -0.1451148
-0.04912209 0.06424469 0.10568639 -0.015696947 -0.13952248 -0.023589138 0.17359938 -0.08662201
-0.038256675 0.090997264 0.052635495 -0.132416 0.038167726 0.11435387 -0.068348244 -0.023250043
0.14675596 0.10384261 -0.11278738 0.14212725 0.09957616 -0.0014708722 0.00010800145 0.06638596
0.04939417 0.20186839 -0.013326947 0.09333781 -0.03090662 -0.147062 -0.061846703 -0.13582602
-0.026164897 -0.18368004 -0.082901984 -0.11286595 0.023464354 -0.22270784 0.13173477 -0.12929063
0.026980266 -0.032030217 0.04031791 0.025409168 -0.05710806 -0.02309153 -0.11502949 -0.020456847
-0.21473254 -0.13516273 -0.1837186 0.06976566 -0.088205434 0.04805393 -0.076922506 0.22336744
0.081935234 -0.011308752 -0.15246074 0.11083136 -0.16597655 0.11709857 -0.17818297 0.12735128
0.17173316 -0.029028593 -0.13616885 -0.01818876 -0.16780068 0.13444157 -0.16240606 -0.119061306
0.14867954 -0.13952714 0.10505202 0.1912765 -0.149145 0.086042546 0.014088263 -0.19187315
0.036748853 -0.16083331 -0.06919098 0.072191425 0.19304444 -0.23150286 -0.0031500664 -0.0004413695
0.21587767 0.15722756 0.03129361 0.01175839 -0.1661696 0.0028625492 -0.04291297 -0.022031164
-0.02219833 0.07932925 0.14016412 0.078460254 -0.024185851 -0.06612019 0.15875633 -0.06611
0.0905062 0.0013949437 -0.026682474 0.026024535 0.04698486 0.0048311735 -0.10738864 -0.2511092
-0.0071923197 0.052415725 -0.058394145 0.11251402 -0.08006299 0.019829929 0.18730721 0.010617309
0.09113076 -0.2320052 0.008330851 -0.14590338 0.0012763459 -0.003842903 0.052256666 -0.021695264
00000000: 68f8 1cbe 6782 5fbd 822d 013e 89f0 15be
00000010: 2a21 173e 64a4 92bd d0c8 e5bd 66a4 253e
00000020: 193a 053d 80ff 07bd bfea babd ad46 e33d
00000030: a74e 8f3c 5557 8b3b 4e6e b5bd b874 fabc
00000040: 7463 efbc 9aa5 28bd 1321 8dbd ef07 3ebe
00000050: 5347 a5bd 37ad 973d c6ed fd3d 4a6d 76bd
00000060: 2a89 74bd 73e0 2a3d 79d9 403d 6b08 dfbd
00000070: 1730 873e 5a16 153e 5678 8ebb f91a 243e
00000080: 9568 c43b f9b0 b33d 27f1 bdbc 02c2 3a3c
00000090: 9a9f 0dbe ec1c 05be 9e40 023e 8e11 10be
000000a0: 787e 213e be7b b4bd ad81 f33d 4d7f 20be
000000b0: 213c cebd 5855 2b3e aa8d 383d 3f73 4bbe
000000c0: 37c1 23be 9f68 19bd 4f4b b83d 6049 19be
000000d0: 7347 ccbd 3d3b eb3d dc69 acbd bf8f 273e
000000e0: 42c1 70bc 7f10 283d 9317 82bd 377a d93d
000000f0: ec8d 2e3d 470c e73d c8c8 d0ba 9ee3 713e
00000100: e9db b1bd 263e 363c 392e 993b 203a db3d
00000110: b2ee 5fbe bbc4 e13d e778 4a3d ef02 5f3c
00000120: bbd6 d9bd 408a a3bd dc70 82bd 901f 4abd
00000130: b759 2ebe 9efb e53d 21c0 ac3d 2e6c acbd
00000140: 7615 67bc 7d94 183e ebed 8d3d caea 07bd
00000150: f25c 9ebd de7a 16be 703d d9bc 9d99 86bd
00000160: 7d14 363d de15 cc3d 1167 35be 46cc 6a3e
00000170: 2d34 f43d 67ed f93c 583c 9ebd b678 18bd
00000180: 1944 ea3d f91f a6bd 208b c33d cb18 4bbd
00000190: 7ec0 a53c 860c fe3c 612d 17bd 5a29 073e
000001a0: 51bc 603d 228f 81bd b180 26be 8358 113c
000001b0: 904a a93d fd6a abbd 2d4a 843c f853 23bd
000001c0: fe00 b83d ce7a a8bd aad9 253c 5476 43bc
000001d0: b317 c03c 6527 7a3d 6851 3d3c 0b44 9cbe
000001e0: a8ef 3bbd 0c79 8f3d 6d43 fcbd 87b7 c93c
000001f0: 23de 0a3d a2e1 85bc 9908 133e f998 14be
00000200: 3f34 49bd b892 833d 1b72 d83d e296 80bc
00000210: fbde 0ebe 023e c1bc 09c4 313e e166 b1bd
00000220: 08b3 1cbd c65c ba3d 5198 573d 0f98 07be
00000230: c355 1c3d 5d32 ea3d 2afa 8bbd e076 bebc
00000240: 3247 163e 6fab d43d 12fd e6bd ce89 113e
00000250: 96ee cb3d 48ca c0ba d67e e238 5df5 873d
00000260: 8b51 4a3d 96b6 4e3e 4459 5abc e527 bf3d
00000270: e12f fdbc 6c97 16be f852 7dbd fa15 0bbe
00000280: c457 d6bc 9f16 3cbe 84c8 a9bd 4326 e7bd
00000290: 5138 c03c 860d 64be 7be5 063e c364 04be
000002a0: b805 dd3c 1e32 03bd 6524 253d e326 d03c
000002b0: 24ea 69bd 732a bdbc 9594 ebbd 1e95 a7bc
000002c0: d9e2 5bbe 1968 0abe bb20 3cbe 4ce1 8e3d
000002d0: 0da5 b4bd 33d4 443d 8c89 9dbd 6fba 643e
000002e0: a9cd a73d 5848 39bc ab1e 1cbe 8dfb e23d
000002f0: c2f5 29be 60d1 ef3d 9975 36be 6068 023e
00000300: d1da 2f3e 5fcd edbc d96f 0bbe 9800 95bc
00000310: f1d3 2bbe 0dab 093e c64d 26be 6ad6 f3bd
00000320: 733f 183e 34e0 0ebe 8325 d73d fddd 433e
00000330: 78b9 18be 1337 b03d 75d2 663c 657a 44be
00000340: f785 163d 7db1 24be 00b4 8dbd 19d9 933d
00000350: 71ad 453e 160f 6dbe 5871 4ebb 9d67 e7b9
00000360: 090f 5d3e 4300 213e ba2d 003d 43a6 403c
00000370: 5d28 2abe 9b99 3b3b 83c5 2fbd b37a b4bc
00000380: 46d9 b5bc 6077 a23d 2f87 0f3e c5af a03d
00000390: 6821 c6bc 066a 87bd 0591 223e ae64 87bd
000003a0: 515b b93d 8bd6 b63a 3495 dabc 6831 d53c
000003b0: 3273 403d d24e 9e3b 93ee dbbd 6391 80be
000003c0: 8dad ebbb dfb1 563d b32e 6fbd c06d e63d
000003d0: 11f8 a3bd 6072 a23c 76cd 3f3e 39f4 2d3c
000003e0: c4a2 ba3d c592 6dbe 1f7e 083c b267 15be
000003f0: 104b a73a 37d9 7bbb 160b 563d 44ba b1bc

fc1.bias f4 [10]
0.21778578 -0.046087604 0.12082758 0.052298974 0.116569266 -0.023684237 0.093451224 0.11965793
-0.024830595 0.12250806
00000000: 3c03 5f3e 5bc6 3cbd 7374 f73d 7337 563d
00000010: debb ee3d 7205 c2bc 5b63 bf3d 380f f53d
00000020: 8869 cbbc 81e5 fa3d

fc21.weight f4 [2, 10]
0.10530183 -0.00023382402 -0.1361847 0.105053 -0.23753512 -0.13677485 -0.17343895 0.17103738
0.2212756 0.25483385 0.14762856 -0.076143004 -0.14917314 -0.2454201 -0.021567192 -0.21310955
0.057179283 -0.1288864 -0.021838939 0.27650768
00000000: 7ca8 d73d a82e 75b9 0174 0bbe 0726 d73d
00000010: 683c 73be b50e 0cbe fb99 31be 6c24 2f3e
00000020: 1296 623e 9579 823e f12b 173e ddf0 9bbd
00000030: d8c0 18be 684f 7bbe aead b0bc 6439 5abe
00000040: d334 6a3d ccfa 03be 93e7 b2bc 6a92 8d3e

fc21.bias f4 [2]
0.088038824 -0.10855901
00000000: b34d b43d 3054 debd

fc22.weight f4 [2, 10]
0.07127172 0.035207037 0.17914742 -0.19034958 0.22761959 0.13223208 0.20046581 0.26765242
0.036309045 -0.12908216 0.21112669 0.14444068 0.24285777 -0.05143646 -0.04847902 -0.17731856
-0.26796883 0.0115430495 -0.058604017 -0.06151903
00000000: e8f6 913d 4135 103d 6c72 373e 00eb 42be
00000010: 1c15 693e d967 073e e946 4d3e bd09 893e
00000020: cbb8 143d 1d2e 04be 9831 583e 42e8 133e
00000030: b5af 783e 0aaf 52bd f091 46bd ff92 35be
00000040: 3633 89be 0f1f 3d3c c40a 70bd 61fb 7bbd

fc22.bias f4 [2]
-0.34184498 -0.26219746
00000000: 4e06 afbe bf3e 86be

batchnorm1.weight f4 [10]
0.9756083 0.96501255 0.97780186 1.0561243 0.9478138 0.9744759 0.96008945 1.1216848
1.0019579 1.1816956
00000000: 77c1 793f 100b 773f 3951 7a3f 152f 873f
00000010: eda3 723f 4177 793f 6cc8 753f 5e93 8f3f
00000020: 2840 803f cd41 973f

batchnorm1.bias f4 [10]
-0.17362209 -0.1967287 -0.20203891 0.005001358 0.014532421 0.033855975 0.074897 -0.14062057
-0.093158126 0.09710456
00000000: fdc9 31be 4073 49be 4ae3 4ebe 6fe2 a33b
00000010: 6419 6e3c 90ac 0a3d 9963 993d d7fe 0fbe
00000020: b0c9 bebd c1de c63d

batchnorm1.running_mean f4 [10]
0.23237817 0.14008826 0.21058074 0.46421453 0.2368228 0.15290008 0.38223746 0.44946688
0.055953667 0.23771581
00000000: 8bf4 6d3e 4c73 0f3e 7aa2 573e 87ad ed3e
00000010: ad81 723e d791 1c3e a1b4 c33e 8620 e63e
00000020: ac2f 653d c66b 733e

batchnorm1.running_var f4 [10]
0.1971607 0.108828574 0.12487084 0.22429705 0.13399991 0.10388442 0.2767167 0.186004
0.06758765 0.28422058
00000000: 7fe4 493e 84e1 de3d 48bc ff3d 20ae 653e
00000010: 4637 093e 5bc1 d43d d0ad 8d3e d577 3e3e
00000020: 656b 8a3d 5c85 913e

fc3.weight f4 [10, 2]
0.022227682 -0.04460395 -0.28679693 -0.72442704 0.4560777 -0.47032884 0.3309891 -0.26133856
0.088732876 -0.054252885 0.35360876 0.09369108 0.045943316 0.65236163 0.17749451 -0.5429389
-0.39318556 0.23727997 0.4744778 -0.10883594
00000000: d416 b63c a2b2 36bd 0cd7 92be 0d74 39bf
00000010: 0483 e93e f1ce f0be 6777 a93e 2bce 85be
00000020: 95b9 b53d 4638 5ebd 350c b53e 1ce1 bf3d
00000030: 0f2f 3c3d 2c01 273f 1fc1 353e 0bfe 0abf
00000040: 9e4f c9be 85f9 723e c1ee f23e 61e5 debd

fc3.bias f4 [10]
-0.5811593 0.2977976 -0.79587525 -0.6851948 0.40819058 0.882457 -0.669386 0.9140652
-0.7903086 -0.74818593
00000000: dbc6 14bf ed78 983e 7bbe 4bbf ed68 2fbf
00000010: 5bfe d03e b4e8 613f e25c 2bbf 2d00 6a3f
00000020: aa51 4abf 1d89 3fbf

batchnorm3.weight f4 [10]
1.0209334 1.054579 1.0191429 0.9635874 1.0789964 0.9926858 1.1336763 0.9384351
0.94061446 1.0321584
00000000: f2ad 823f 72fc 863f 4673 823f aaad 763f
00000010: 8e1c 8a3f a820 7e3f 4e1c 913f 483d 703f
00000020: 1ccc 703f c41d 843f

batchnorm3.bias f4 [10]
0.2681433 -0.12587686 0.19400714 -0.19716787 -0.16837803 -0.22595793 -0.15452425 -0.16411938
0.3610721 0.13619116
00000000: 144a 893e dde5 00be cfa9 463e 60e6 49be
00000010: 4a6b 2cbe 8461 67be 9b3b 1ebe e90e 28be
00000020: 71de b83e b275 0b3e

batchnorm3.running_mean f4 [10]
0.00022396164 0.13867348 0.010710848 0.0057661734 0.42934173 1.0873544 0.03463279 0.8009935
1.8611803e-07 0.0125112645
00000000: 3fd7 6a39 6c00 0e3e 8d7c 2f3c 2bf2 bc3b
00000010: aed2 db3e 6e2e 8b3f 1ddb 0d3d e90d 4d3f
00000020: bcd7 4734 0cfc 4c3c

batchnorm3.running_var f4 [10]
0.0007296745 0.08878784 0.3590204 0.17902626 0.01625685 0.2447743 0.04513236 0.18060474
3.942037e-09 0.34554636
00000000: a047 3f3a 66d6 b53d 86d1 b73e a952 373e
00000010: 162d 853c 1da6 7a3e b6dc 383d 73f0 383e
00000020: 8672 8731 74eb b03e

fc4.weight f4 [30, 10]
0.23192345 -0.46983013 0.04966883 0.2666011 -0.44178674 -0.2458779 -0.6815559 0.09493786
-0.045739103 0.1676405 0.2365663 0.12797707 -0.12301502 -0.19670029 0.22947139 -0.24446954
-0.45896834 0.5255591 -0.277011 -0.34543744 -0.23921725 0.12670755 -0.07549724 -0.000805974
0.32640007 0.036222674 -0.131107 0.25273994 -0.0066011446 -0.3660848 0.23240401 0.4071012
0.07880906 0.12360294 -0.34891123 -0.2987829 0.1463835 0.10919174 -0.22710782 -0.1509681
0.07818436 0.08939415 -0.21350881 -0.19209062 0.08216396 -0.26900357 0.3092151 -0.28554964
-0.39578202 -0.17971785 -0.24168473 0.22836266 -0.21861622 -0.04837313 -0.16853434 0.19696385
-0.18625195 -0.009316522 0.42409936 -0.03544999 0.07737391 -0.20900722 0.3243687 -0.26854566
0.13794096 0.02651537 -0.03957984 0.22263573 0.11427939 0.3309362 -0.046642046 -0.3502284
-0.4078727 0.18605621 -0.26057878 0.2437837 -0.088578284 0.03713461 0.2220481 -0.09619188
-0.15009071 -0.19330856 -0.17431729 0.1436618 0.11853219 0.09981037 0.020570196 0.19526255
0.3270417 0.12728639 -0.0594401 0.09097874 0.27622533 -0.2077381 -0.08960222 -0.25301096
0.0484944 -0.18450367 -0.07432381 -0.067199655 -0.058638923 -0.062667705 -0.05816913 0.23363174
0.057499312 -0.33985564 0.079426534 -0.07898021 -0.18931003 -0.05209492 -0.32377133 0.017978447
-0.02310939 -0.20995031 -0.17045537 -0.1850111 0.0027592299 -0.22656472 0.2678196 0.21810664
-0.019201744 -0.008142776 -0.20451973 0.037034124 -0.103331454 0.09431885 -0.028324524 -0.047983177
0.33961135 -0.15382425 -0.10836912 0.06624813 0.06586313 -0.06942117 -0.25036582 0.23968244
-0.04451617 0.18872784 0.3569056 0.23995556 -0.24450071 -0.039741676 -0.036268752 0.10785414
-0.10762072 -0.05875375 0.06769872 0.12106262 -0.11485931 -0.10022771 0.09931588 -0.076596744
0.3156618 -0.21334004 0.2678079 -0.147251 0.05259481 -0.16027083 0.033166904 -0.11228886
0.11022037 0.07397408 0.3581615 0.08262756 0.015740564 0.0028997865 0.031251498 0.04712397
0.18120264 -0.13669384 -0.18371336 0.03888 0.263386 -0.26254162 -0.20128019 0.0830023
-0.016149567 0.016460208 -0.24678628 -0.18092997 -0.14085938 0.028099576 -0.14082314 0.1816272
-0.13462326 -0.019539641 0.053012848 0.12353621 0.22654338 -0.31190228 0.30924645 0.07496196
0.068327054 -0.17548099 0.19546002 0.09236006 -0.021314567 -0.10284998 0.05392406 0.18743916
0.33835402 0.13078642 0.32020655 0.15971763 0.23912096 -0.0113140065 -0.02350446 -0.18859395
-0.09989923 -0.09121166 0.17178844 0.19326524 -0.26075023 0.028816067 -0.1945392 0.18561323
-0.042196907 -0.18072014 0.41500136 -0.16527018 -0.09007658 0.029523678 0.2035594 0.31018093
-0.20460601 0.25148305 -0.037478205 0.16017249 0.0664033 0.043355074 -0.0632599 -0.0164796
-0.103379674 -0.30838978 0.15728752 -0.22280951 0.035801586 -0.119861774 -0.012590899 0.18100432
-0.34169066 -0.09896489 0.14666946 0.13405246 -0.2259264 -0.073940516 0.021033665 0.058247328
0.06418713 -0.20314182 -0.15291949 -0.031759992 -0.007471376 -0.27056986 -0.32972583 0.1691957
00000000: 577d 6d3e 938d f0be 8b71 4b3d f07f 883e
00000010: df31 e2be 6bc7 7bbe 737a 2ebf c86e c23d
00000020: ed58 3bbd f4a9 2b3e 703e 723e 6c0c 033e
00000030: 4cef fbbd cd6b 49be 8cfa 6a3e 3956 7abe
00000040: e6fd eabe 0b8b 063f 63d4 8dbe 2ddd b0be
00000050: 5ef5 74be a0bf 013e 4c9e 9abd 0048 53ba
00000060: e91d a73e 3a5e 143d ea40 06be 2167 813e
00000070: 6a4e d8bb 786f bbbe 51fb 6d3e 926f d03e
00000080: a566 a13d 8a23 fd3d 7ea4 b2be 13fa 98be
00000090: 8ee5 153e eb9f df3d f48e 68be 6297 1abe
000000a0: 1f1f a03d 4814 b73d 0ea2 5abe 67b3 44be
000000b0: 9445 a83d d6ba 89be 7151 9e3e 9033 92be
000000c0: f1a3 cabe f507 38be 347c 77be e7d7 693e
000000d0: eedc 5fbe e722 46bd 4494 2cbe e4b0 493e
000000e0: d5b8 3ebe 53a4 18bc 8d23 d93e 0234 11bd
000000f0: 3676 9e3d fd05 56be a713 a63e d17e 89be
00000100: 6540 0d3e c336 d93c 781e 22bd 9ffa 633e
00000110: 500b ea3d 7870 a93e bb0b 3fbd 2351 b3be
00000120: b1d4 d0be 8585 3e3e 956a 85be 6fa2 793e
00000130: 8868 b5bd 761a 183d 9460 633e 4000 c5bd
00000140: 61b1 19be aef2 45be 3b80 32be 141c 133e
00000150: 01c1 f23d 6169 cc3d d482 a83c e8f2 473e
00000160: 0272 a73e 5d57 023e 7677 73bd 1053 ba3d
00000170: 686d 8d3e 4cb9 54be 5e81 b7bd a78a 81be
00000180: 10a2 463d 88ee 3cbe 1537 98bd f99f 89bd
00000190: 5e2f 70bd ed57 80bd c142 6ebd 293d 6f3e
000001a0: 6684 6b3d 8f01 aebe 61aa a23d 60c0 a1bd
000001b0: 7dda 41be 7c61 55bd 5bc5 a5be 8947 933c
000001c0: e74f bdbc 37fd 56be da8b 2ebe 8d73 3dbe
000001d0: 32d4 343b 9500 68be a71f 893e 5957 5f3e
000001e0: fa4c 9dbc 4769 05bc 9f6d 51be 18b1 173d
000001f0: 719f d3bd 3e2a c13d d508 e8bc 028a 44bd
00000200: 8ae1 ad3e 1b84 1dbe a1f0 ddbd 19ad 873d
00000210: 40e3 863d b02c 8ebd f32f 80be 506f 753e
00000220: 9656 36bd df41 413e 55bc b63e e9b6 753e
00000230: 655e 7abe 2bc8 22bd 8b8e 14bd a2e2 dc3d
00000240: 4168 dcbd c6a7 70bd a0a5 8a3d aeef f73d
00000250: 5c3b ebbd 3044 cdbd 2066 cb3d c1de 9cbd
00000260: 6c9e a13e d075 5abe 1e1e 893e f7c8 16be
00000270: a86d 573d 091e 24be 05da 073d b4f7 e5bd
00000280: 38bb e13d b97f 973d f260 b73e a338 a93d
00000290: 5bf2 803c 580a 3e3b 9201 003d 1005 413d
000002a0: 2f8d 393e 78f9 0bbe 5b1f 3cbe a340 1f3d
000002b0: 88da 863e db6b 86be 651c 4ebe 1cfd a93d
000002c0: 194c 84bc 8fd7 863c 8bb5 7cbe b545 39be
000002d0: 713d 10be 1531 e63c f133 10be 7bfc 393e
000002e0: aeda 09be 9911 a0bc 0024 593d 8d00 fd3d
000002f0: fdfa 673e a8b1 9fbe 8d55 9e3e a885 993d
00000300: 0eef 8b3d 4ab1 33be ac26 483e 4527 bd3d
00000310: e39b aebc 03a3 d2bd 7adf 5c3d 0df0 3f3e
00000320: bd3c ad3e e0ec 053e 1df2 a33e 058d 233e
00000330: 20dc 743e 625e 39bc 6d8c c0bc c61e 41be
00000340: f897 ccbd 2ecd babd 4fe9 2f3e 53e7 453e
00000350: 0e81 85be ac0f ec3c 4935 47be 6511 3e3e
00000360: aad6 2cbd b30e 39be 0f7b d43e 963c 29be
00000370: 127a b8bd a4db f13c e071 503e 09d0 9e3e
00000380: 3d84 51be 63c2 803e bf82 19bd 4204 243e
00000390: 74fe 873d 1795 313d 688e 81bd 3a00 87bc
000003a0: b9b8 d3bd 44e5 9dbe fb0f 213e 2d28 64be
000003b0: afa4 123d 177a f5bd 0f4a 4ebc 3259 393e
000003c0: 14f2 aebe 1bae cabd 8530 163e 0c45 093e
000003d0: 4059 67be 206e 97bd cb4e ac3c c094 6e3d
000003e0: 8b74 833d 6904 50be ed96 1cbe c416 02bd
000003f0: 72d2 f4bb 2288 8abe d3d1 a8be a341 2d3e

fc4.bias f4 [30]
-0.2822329 0.07380497 0.22404152 0.0040038936 0.11081382 -0.05343895 -0.15803303 0.007423221
0.020332588 -0.11746842 0.060499273 -0.18058208 -0.07456109 -0.09349663 0.13914447 -0.127348
-0.069449835 0.050319713 0.05618247 -0.11860804 -0.03776362 -0.12688674 0.07235275 -0.08613092
0.031164298 -0.13235198 -0.06702656 0.11246396 -0.055199374 -0.4532981
00000000: d580 90be 0f27 973d 246b 653e 1833 833b
00000010: 5bf2 e23d cde2 5abd 69d3 21be 7e3e f33b
00000020: 8790 a63c 4893 f0bd 16ce 773d 82ea 38be
00000030: 7cb3 98bd 297b bfbd e37b 0e3e 8467 02be
00000040: b73b 8ebd 0b1c 4e3d 971f 663d c6e8 f2bd
00000050: 07ae 1abd 99ee 01be ae2d 943d 6865 b0bd
00000060: 454c ff3c 4787 07be 3945 89bd 8153 e63d
00000070: bd18 62bd b016 e8be
