models/best_models/anomaly_weighted/model_randomstate_3_epochs_3000.pkl (torch_old, 6002 bytes, 18 tensors)

fc1.weight f4 [10, 30]
00000000: 4b76 7ebe b7f9 d4bd c916 37bd 3a4b 87bd
00000010: 219d f53d 90d2 7ebe 4d16 003d 3b5d 65bd
00000020: 4f82 d3bc f737 8fbd ab15 0b3d a3e1 82bd
00000030: a854 16bb 6d47 c5bd e920 f2bc 50e2 a6bd
00000040: 6f32 90bd 1f27 74bc a3e7 873d 120a 9c3d
00000050: 2991 803d f196 043d e93c 86bd 2596 0fbe
00000060: 7b33 09be 17db 74bb 9867 443d 9c2c a53c
00000070: 2949 57bd 8dcb 033e da71 29be 18e5 bf3d
00000080: 544e 59be 2f2f 99bd 9784 6b3e 259e 963d
00000090: fbd7 97be d6e2 f13d 7d15 f13d b022 003e
000000a0: 4d75 c7bc d070 0c3c 7c8f ea3b bce7 d3ba
000000b0: 4892 5b3d 48a0 703d 1295 e7bc bdfb d93c
000000c0: 08ab abbd 0f1c afbc cc5d 08bd 532d 99bd
000000d0: a596 3c3e b1e6 ab3e 028c 673e a4e2 5dbd
000000e0: 219c 2abb c63f 3dbd 0fa7 be3d 56ca 2e3e
000000f0: 9b63 a4bd 5b71 1dbe 7795 5bbd bc42 6f3d
00000100: d5ad b4bd d4ef 2a3d b20d af3d 355b 043c
00000110: d2cc acbd 155a 0cbe a5e9 3a3d 5f52 86bd
00000120: 1fd5 213c 4977 86bd 8b26 b53c a33e 68bd
00000130: 932c e5bd 7204 3fbd 6c96 b83d 768d 5dbd
00000140: eaf7 0a3d a870 a93b 04f7 82bc e462 e6bb
00000150: f34f 66bd 7ffb c039 4a6a 8fbc 0503 893c
00000160: 6442 3e3e d9b5 f33e 212f a1bd 1869 263e
00000170: e290 9bbe 5f76 1dbe ee7e 163e e437 46bc
00000180: 51f3 f4bd 7a21 2a3d a775 d73d 76ea c53d
00000190: 4159 3bbd 3cbb c73c cdc4 023c 92a1 053d
000001a0: 3255 e43b efb5 8bbc e8d4 173d 2fcf e03c
000001b0: ba9a 383c 0a1b d93d 571e fb3c bad6 c4bb
000001c0: 82c0 653d d1b9 b03d e646 de3d 4341 61bd
000001d0: 30b9 65bd e355 e2bd 41a0 27bb 31ee 1dbd
000001e0: f0ab b23c 079d e43b 0d32 a6be 9485 5abe
000001f0: 4577 663e a60a 83bd 79f2 d6bd 5880 b03b
00000200: 16f0 253e 27f8 b13d 09ba 41bd 4d24 7f3d
00000210: 5e5d 0d3c 433d 0c3d 8d44 f33b 45f8 8e3d
00000220: 3166 bd3c 94c8 513d 436a 2ebd 608f 6f3d
00000230: 697e 483c 0f84 9bbd 52b8 a43d d4ea 313e
00000240: 9153 683e f698 29bd ffef 42bd 355a bbbd
00000250: 0f10 4cbd 8785 103e 2d92 693e 366a 00bd
00000260: 01ca 43be a6f3 2c3d 068e 87bc ea41 023e
00000270: c535 abbd f8c5 c13c 9f14 e43c 8c53 013c
00000280: 2521 e33c 8c28 ffbc 856e c53b 1550 ecbc
00000290: 39ee 473d 598c 31bd 18e4 98bd e9ef b8bc
000002a0: 4f65 f73a bff0 6a3c 491a 2e3b 603c 98bd
000002b0: d582 0d3c 08e2 163e f9a6 363e a14a d0bc
000002c0: 4e69 c5bd 2570 853d 0bcf 74be 09ad d2be
000002d0: 8d29 3c3e e35a 4d3d 84ca b53b 73b5 de3d
000002e0: f176 41bd 14d7 edbd 1a30 453d 1f57 c5bc
000002f0: 6c54 953c 9451 363d 583e 0bbc b91a ba3d
00000300: 11a1 973b 196c 823d 87bf 393c 18e0 ea3c
00000310: 4670 f83d c1f9 ee3c de10 d23c 49bf 80bd
00000320: 07ef 98bc 23b6 b63c bef6 dd3c 5317 fbbd
00000330: bf1b b33c 98ec 833c e09a 2ebd 35b6 373d
00000340: 34b0 c2bd f533 c2be 4e11 ce3d 343e 0e3d
00000350: 14f4 e4bd 9536 bbbd 1099 c43c e3cf 033d
00000360: 7646 c53d cb23 96bc f2d0 bc3d 3a73 c03d
00000370: 1ed8 89bd 0493 193e eaab 103c 7c67 083e
00000380: da3f 873c eb97 1a3e 4a66 3f3e 4ff2 9a3d
00000390: 21cc 7dbd 64e8 353c 5a1c 82bc 75a3 85bd
000003a0: 798f 04bc b24f 533d 54ef 8f3d 804c c73b
000003b0: 7473 80bd 085d b0bb 49d1 97be fe6f 59be
000003c0: 984a b63e 651f 293e c24f 10be 6109 8c3d
000003d0: f8f2 ba3b 1837 923d 654a 04be c706 ef3c
000003e0: 8572 6e3d c744 0c3d 975b 133d b579 58bb
000003f0: 2069 8fba 2798 05bd cbd5 463d e411 0cbd
-0.24849813 -0.10399192 -0.044699464 -0.06606145 0.119928606 -0.2488501 0.031271268 -0.055997115
-0.025818972 -0.06993096 0.03395621 -0.06390693 -0.0022938643 -0.09632764 -0.029556708 -0.081486344
-0.070408694 -0.014901905 0.06635978 0.07619108 0.06277687 0.03237051 -0.065545864 -0.1402212
-0.13398544 -0.0037362033 0.047950357 0.020162873 -0.052560005 0.12870617 -0.16547337 0.09369868
-0.21221286 -0.07479703 0.22999798 0.073543824 -0.29656968 0.11810844 0.11771677 0.12513232
-0.024347926 0.0085718185 0.007158218 -0.0016167085 0.0536063 0.058746606 -0.028269324 0.026609296
-0.08382231 -0.021375684 -0.033292577 -0.07479348 0.18416841 0.3357444 0.22612002 -0.05417122
-0.0026033001 -0.046203397 0.09309208 0.17069373 -0.08026811 -0.15375273 -0.053609338 0.058413252
-0.08822218 0.041732624 0.08547534 0.008078386 -0.08437504 -0.13706239 0.045632977 -0.0655868
0.009877472 -0.065657206 0.022113105 -0.05670036 -0.111901425 -0.0466351 0.09013066 -0.054089986
0.033927836 0.0051709004 -0.015986927 -0.0070308316 -0.05622859 0.00036808473 -0.017506737 0.016725073
0.18580014 0.47599676 -0.07870317 0.16251028 -0.30383974 -0.15377186 0.14696857 -0.012098286
-0.119604714 0.041535832 0.10520487 0.096638605 -0.045739416 0.024381272 0.007981491 0.03262479
0.006968164 -0.017054526 0.037068278 0.027442543 0.011267358 0.106008604 0.030654116 -0.0060070427
0.056091793 0.08629192 0.108533666 -0.05499388 -0.05608481 -0.11051538 -0.0025577697 -0.038557235
0.021810502 0.006976727 -0.3246006 -0.21340019 0.22506435 -0.063985154 -0.10495467 0.0053863935
0.16204867 0.086899094 -0.047296558 0.06229048 0.0086282175 0.03423811 0.0074239434 0.069809474
0.023120018 0.051216677 -0.042581808 0.058486342 0.01223717 -0.075935476 0.08042969 0.17374736
0.22688128 -0.04140564 -0.04759216 -0.09148065 -0.049820002 0.14113437 0.22809668 -0.03135129
-0.19120027 0.04222455 -0.016547214 0.12720457 -0.08359865 0.02365397 0.027841864 0.007893454
0.027725765 -0.031147264 0.006025138 -0.02884678 0.04881117 -0.043346737 -0.074653804 -0.022575336
0.0018874797 0.014339625 0.002656596 -0.074333906 0.00863715 0.14734662 0.17837133 -0.02542621
-0.09639226 0.065155305 -0.23907106 -0.4114764 0.18375225 0.050135504 0.0055478234 0.108744524
-0.047232572 -0.116132885 0.048141576 -0.024089394 0.018228732 0.044511393 -0.008498751 0.09087128
0.004627355 0.06368274 0.011337168 0.02867131 0.121307895 0.029171826 0.025642809 -0.06286485
-0.018668665 0.022303646 0.027095195 -0.12260308 0.021863816 0.016104028 -0.04262817 0.0448515
-0.09506264 -0.37930265 0.10061894 0.03472729 -0.11179367 -0.0914127 0.023998767 0.032180678
0.0963258 -0.018327614 0.09219541 0.09396978 -0.06730674 0.14997488 0.00883005 0.13320726
0.016509939 0.15097015 0.18691364 0.07565748 -0.06196225 0.0111027695 -0.01588266 -0.065253176
-0.008090847 0.051589675 0.0702807 0.0060821176 -0.06272021 -0.005382184 -0.2965186 -0.21234128
0.35603786 0.16515882 -0.14092925 0.068377264 0.0057052337 0.071394145 -0.12919004 0.029178036
0.058214683 0.03424528 0.03597602 -0.0033031527 -0.0010941364 -0.032615807 0.048543733 -0.03419675

fc1.bias f4 [10]
00000000: 6c74 bd3e 883c 21bd a25f b13d 73a5 943d
00000010: 41ff 1dba 93b0 15be 2139 cc3d 0244 f83e
00000020: e00e be3e 3e15 f2bd
0.37002885 -0.039364368 0.08660819 0.072581194 -0.00060271105 -0.14618139 0.09971834 0.48489386
0.37120724 -0.11820458

fc21.weight f4 [2, 10]
00000000: 4c30 0dbc 1d68 03be 119a 5c3e 51de 10be
00000010: de13 4a3e c973 5abf dcd9 5dbe 47d5 bfbe
00000020: 14c1 4e3f 1d99 1d3d d3cb 8ebe bb26 83be
00000030: 813b dd3d a51b 4bbe 0320 953e a37d 853e
00000040: d753 973e dd24 4fbe 0884 14be 56b5 863e
-0.008617472 -0.12832685 0.21543147 -0.14147307 0.19734141 -0.85332924 -0.21665138 -0.37467405
0.80763364 0.0384761 -0.2788988 -0.25615487 0.10802365 -0.19834764 0.29125986 0.26072416
0.29556152 -0.20228906 -0.14503491 0.26310223

fc21.bias f4 [2]
00000000: 4567 20be 3524 6e3e
-0.15664394 0.23256

fc22.weight f4 [2, 10]
00000000: 888f edbd 15eb 21bd a39e 8fbd 7040 c6be
00000010: f582 233e dd1a a8bd 45a5 33bd b899 c93e
00000020: a143 3bbe 2f8c db3c 7363 73be fbbf 36be
00000030: 28b5 13be 35b3 71be ad23 973e f4dd 68bd
00000040: 6942 633e 9bbc 303d c9cf c1bc 51d5 5a3e
-0.11599642 -0.039530832 -0.070126794 -0.38721037 0.15967925 -0.08208249 -0.043858785 0.3937509
-0.18287517 0.026800243 -0.23768406 -0.17846672 -0.14424574 -0.23603518 0.29519406 -0.056852296
0.22193302 0.04314862 -0.02365865 0.21370436

fc22.bias f4 [2]
00000000: 952e 71bf a698 37bf
-0.94211704 -0.717173

batchnorm1.weight f4 [10]
00000000: 3b0e 6d3f 4ac5 7d3f a9d9 5a3f 802e 923f
00000010: 63b5 8f3f cdd9 d23f fb68 6c3f b102 923f
00000020: a79d c73f d234 653f
0.9259984 0.99129164 0.85488373 1.1420441 1.122723 1.6472718 0.9234769 1.1407071
1.5594987 0.8953372

batchnorm1.bias f4 [10]
00000000: bdee 143f 2b09 103f 3ff2 973e 9e10 40bc
00000010: 18b6 ef3e 3997 a33e a3de f2bd 5c47 46be
00000020: 1586 aa3e 54f7 02bf
0.58176786 0.5626399 0.29677007 -0.011722712 0.46818614 0.3195131 -0.11858871 -0.19363159
0.3330542 -0.5115864

batchnorm1.running_mean f4 [10]
00000000: 32bb b43e 5150 363e eaf0 7e3d 6c57 903e
00000010: 31c8 5f3e 0a6f cf3e 653b 093f 55ec 3a3f
00000020: be60 d53e 9803 403e
0.3529907 0.17804076 0.062241472 0.28191698 0.2185371 0.40514404 0.53606254 0.73016864
0.4167537 0.18751371

batchnorm1.running_var f4 [10]
00000000: b420 a23e 87fa a73e df3e 493e 6e7c 923e
00000010: 5e3b 373e 672d 513e e572 ff3d f325 033e
00000020: 6a5f 683e 4c88 2d3e
0.31665576 0.32808325 0.1965289 0.28610557 0.1789374 0.20427476 0.12473086 0.12807445
0.22692648 0.16946524

fc3.weight f4 [10, 2]
00000000: 9cb3 b73e 13d1 adbe a9eb b7be 57c6 563f
00000010: f583 dcbe 81f9 75be 3458 ebbc a5a2 f93d
00000020: 36af e13e cee1 1a3b db36 0e3f 78ce 9d3c
00000030: 04af 92be 14b4 793e c6d8 a13d 4846 573f
00000040: 05dd 243d 2f5a 50bc d2ff fd3d 177d 223f
0.3587922 -0.33948573 -0.35921982 0.8389639 -0.43069425 -0.2402096 -0.028728582 0.12189225
0.44078988 0.0023633125 0.5555245 0.019263491 -0.2864915 0.243851 0.079026744 0.84091616
0.040249843 -0.012716814 0.124023095 0.6347212

fc3.bias f4 [10]
00000000: ce8e 17bf b21c c7be 0691 da3d 7846 2a3f
00000010: 25d5 1ebf 7c73 373d 95d1 e03d c163 d73e
00000020: 4564 993e d0d0 d6be
-0.5920228 -0.3888908 0.10672192 0.66513777 -0.6204398 0.04478787 0.109774746 0.42068294
0.29959312 -0.41956186

batchnorm3.weight f4 [10]
00000000: 9a14 a83f 7dfc c23f 3daf 9d3f 06cf ee3f
00000010: 392f b93f d00b 943f c145 bc3f 5a2f ca3f
00000020: ef96 9f3f e566 a13f
1.3131287 1.5233303 1.2319103 1.8656929 1.4467536 1.1566105 1.4708787 1.57957
1.2467936 1.2609526

batchnorm3.bias f4 [10]
00000000: 5d58 063f 4793 debc 0211 78bd db09 863e
00000010: 1dd0 df3e 85cd a1be 0eff 93be bbfe b6bd
00000020: 460f a8be ec20 493d
0.5247858 -0.027169837 -0.060563095 0.26179394 0.43713465 -0.3160211 -0.2890553 -0.08935305
-0.32824153 0.049103662

batchnorm3.running_mean f4 [10]
00000000: bbbb 3c3c ff45 5c3e 08e5 bb3d 07ab 313f
00000010: 82ef 333c 4f05 933e 71a6 423e 32fb 423f
00000020: 5b0a 9d3e 412e eb3d
0.011519368 0.21511076 0.091745436 0.6940159 0.010982396 0.28714988 0.19008805 0.76164544
0.30671963 0.114834316

batchnorm3.running_var f4 [10]
00000000: fa90 fc3b 8398 f43d c0cd 593d 9e22 3b3c
00000010: fe65 e93b 6a2e cb3d ca27 373d 41e6 ae3e
00000020: 5dff 943a fb55 653d
0.0077077122 0.11943152 0.053174734 0.011421828 0.007122754 0.09920962 0.04471568 0.34160045
0.0011367608 0.0559902

fc4.weight f4 [30, 10]
00000000: 74be debe 2524 53be a7d7 19bf 4284 1e3f
00000010: 728a c63a 2519 e93b df25 fa3e 44b0 83be
00000020: 0532 afbe fb8e 45be c227 35bf f0e9 d83e
00000030: e88c 903e cecc 85be bf11 a3bd 12fc 49be
00000040: dad9 abbf 71af 5d3e c01f 4ebf 07cb 8d3e
00000050: f515 363d 578c 42bf 4668 5cbe 8642 ef3e
00000060: 37ff 1dbf 5305 043f ed77 4e3e 715e 54be
00000070: c0bf c73e f014 993e f9df 073f ec20 16be
00000080: 6f07 d73e 8ccd 1b3f 0a0b 59be 0725 9bbd
00000090: 9091 4bbf 5006 e23e fce6 003e 96d5 9a3e
000000a0: 9f30 403f 2363 bebd dbd1 fa3d ab97 5b3f
000000b0: d397 36bf 142f 783e 5ac2 353e e5b7 b1bf
000000c0: 3523 ac3d 1e5e 1b3f 092f 49be a10d 44bf
000000d0: c66e 1f3f 7311 5a3f febf d63d 790d 263f
000000e0: 0974 163f 6325 47bf e40d 0e3e e75c 013f
000000f0: a89e aabe 4572 7e3e 33d0 8ebe 328e 953e
00000100: 7f73 233f 97d6 883d 4de9 f1be 251e 1cbf
00000110: 181e afbe 2c65 8b3e 9e52 8b3d f90a 473d
00000120: 93c7 483e 01b1 153d 7ab7 17be bf89 c03e
00000130: 3722 77be 837f bf3d b1dc dfbe 1a62 0cbe
00000140: dbed 8dbd 69fa e1bd cbc4 463d 4ed2 fbbe
00000150: 6639 623d 6c0d 04bf a392 ad3e 12d9 153f
00000160: c46d e13e d596 1fbe 5caf 07bd 2e63 4b3d
00000170: f70a 8e3e cdf1 fbbe 4ec6 ddbd 43ce 88be
00000180: f4d4 393e 6138 383f 5a8d b63e a153 e3bd
00000190: 262d 56bc 9537 57be 07cf c4bd 0b63 03be
000001a0: 78c3 bc3c 3ec7 77bd 1a93 373e 5764 563e
000001b0: 59d5 0a3d 3c1a 8fbd 95c4 8b3c 05b1 3b3d
000001c0: 42d1 d2bc 76f8 72be dfb0 0f3d 6a07 1ebe
000001d0: 3344 f9bd c290 af3e 38b1 cabd adc1 18be
000001e0: ef99 693d 7895 9c3c fdff 0a3d ee44 693d
000001f0: c4ee b83c f1e5 cdbc 9185 c3bd ef6e a4bb
00000200: 67e3 56bd 8c31 45bc e628 2f3d 0925 a93d
00000210: 55d2 093d bf0b 05bd e675 733c a817 413d
00000220: 5918 5dbe 087b cb3d 95ea 65be 961a 3cbd
00000230: 230e a13d 2a35 92be 2159 e0bc 1d3a 4fbd
00000240: dd2d b83c 6730 053d 0941 873d 4dda 453e
00000250: a39f 66be bc21 78bd 46f2 203c bd90 01be
00000260: 2279 27bd 526b 9bbd 9ce4 623d 395d febd
00000270: 7600 ca3d ce08 50bd fecf 9d3c 58ad 793e
00000280: c875 0b3c 2232 ec3d 4533 683d c8d7 89bd
00000290: 1df2 873c e91c 7a3d ec41 5ebe bb64 493e
000002a0: 210a 44be ff23 46be b824 f5ba 88e9 5d3d
000002b0: df49 223d 9fab 853d c043 733c c537 98bc
000002c0: ed5c a5bd 24e0 9cbd 42ca 443c c10b d23b
000002d0: fa3c bc3d c705 823d 266c cbbc 5854 1a3e
000002e0: e7a7 ea3b 65f7 d03d 7da4 80be 43cf 3cbd
000002f0: b25f 8dbe fbd1 29be 5583 e8bd 777e d43d
00000300: 815a 3d3e 59ea a6bb 31c5 b23d 9748 c13b
00000310: 538b 8dbd 1715 173e e790 143e 0e6f 58be
00000320: cb36 20bd 57d8 ae3d 4b56 233d 709a 0e3d
00000330: 20e6 843c eb77 813c 8f23 37bd 4433 f4bc
00000340: 2b1e 453d a387 77bd 7aca c5bb 93f4 013e
00000350: 4197 153d 6a0f ba3d 5615 52bd 4a8e 5c3d
00000360: 73f2 8dbd bb37 b3bd cd32 a23d ca61 fcbc
00000370: c7ef b5bc 679b bebd fde6 b6bd 3c3d 57be
00000380: 2831 1cbd a37d 863d 8f00 143e b327 fa3d
00000390: c475 f3bd 393a 8e3d 466d 6d3d cf95 fdbd
000003a0: c19c 8d3d 34f2 073e 7abc 01bd d615 493e
000003b0: 8dff 1e3d 76a1 31be 56b7 43be b25f e43d
000003c0: e701 54bd eced 55be 5dee 9abd 6912 90be
000003d0: ea15 a0bc aec7 e5bb 9241 a03e 41cd 693e
000003e0: 4852 313a 2291 cd3d 6cb1 edbb 078e f9bc
000003f0: af48 5bbd 62d2 86bd 56e3 1d3c ee24 063d
-0.4350468 -0.20619257 -0.60094684 0.6192056 0.0015147461 0.007113593 0.48857018 -0.25720417
-0.3421785 -0.19292824 -0.7076379 0.4236598 0.28232503 -0.26132816 -0.07962369 -0.19725063
-1.3425858 0.21648957 -0.80517197 0.2769396 0.044454534 -0.7599539 -0.21524152 0.4673044
-0.6171755 0.51570624 0.20162936 -0.20739152 0.3901348 0.29898787 0.5307613 -0.14660996
0.4199786 0.60860515 -0.21195617 -0.07575422 -0.79518986 0.4414544 0.12588114 0.30241078
0.7507419 -0.092962526 0.12247058 0.857783 -0.71325415 0.24236709 0.1774992 -1.3884245
0.08405153 0.60690486 -0.19646849 -0.76583296 0.622784 0.85182875 0.10485838 0.6486431
0.58770806 -0.7779142 0.13872486 0.5053238 -0.3332417 0.24848278 -0.27893218 0.2921005
0.6384811 0.06681555 -0.47248307 -0.60983497 -0.34202647 0.27225626 0.06802867 0.04859445
0.19607382 0.036545757 -0.14816085 0.37605092 -0.24134146 0.09350493 -0.43723062 -0.13709298
-0.06930133 -0.1103409 0.04852752 -0.49183887 0.05523052 -0.5158298 0.33900937 0.5853435
0.44029057 -0.15584882 -0.03312622 0.049655132 0.2774274 -0.49207917 -0.10828839 -0.26719865
0.18147641 0.7196103 0.35654718 -0.11099935 -0.013072288 -0.21017297 -0.096098 -0.1283075
0.023042426 -0.060492747 0.17927209 0.20936714 0.03389487 -0.06987426 0.017061511 0.045823116
-0.025734548 -0.23727593 0.035080787 -0.15432516 -0.12171211 0.3429013 -0.09897083 -0.14917631
0.05703157 0.019114241 0.033935536 0.056950502 0.02257479 -0.025134059 -0.0954696 -0.005018107
-0.05246296 -0.012035739 0.042763613 0.08259017 0.033647854 -0.032481905 0.014859652 0.0471417
-0.21591319 0.09935576 -0.22452767 -0.04592379 0.078640245 -0.28556186 -0.02738625 -0.05059253
0.022482807 0.032516863 0.06604201 0.19321556 -0.22521834 -0.060579047 0.0098233875 -0.1265287
-0.040887006 -0.07588829 0.0553938 -0.124201246 0.09863369 -0.050789647 0.019264217 0.24382532
0.008511968 0.115329996 0.05668952 -0.0673061 0.01659494 0.061062727 -0.21704835 0.19667332
-0.19144489 -0.19349669 -0.001870296 0.05417779 0.03962123 0.06526875 0.014847696 -0.01858128
-0.08074365 -0.07659939 0.012011113 0.0064100926 0.09191318 0.06348758 -0.024831843 0.15071237
0.007161129 0.10203437 -0.25125495 -0.046096098 -0.27612072 -0.16584007 -0.113531746 0.10375684
0.18491556 -0.0050938544 0.087290175 0.005898546 -0.069113396 0.14754139 0.14508401 -0.21136114
-0.039114755 0.08537357 0.039877217 0.03481525 0.016223013 0.015804252 -0.044711646 -0.029809602
0.048124474 -0.060432088 -0.0060361 0.12690954 0.0365212 0.09084971 -0.05128988 0.053846635
-0.06931009 -0.08750864 0.07919846 -0.030808348 -0.022209061 -0.093069844 -0.08930776 -0.21019453
-0.038132817 0.06566932 0.14453338 0.12214603 -0.118876964 0.06944699 0.05796554 -0.12382089
0.06914664 0.13275987 -0.031673886 0.19637236 0.03881793 -0.17346749 -0.19112906 0.11151065
-0.051759627 -0.20891541 -0.075649954 -0.28139046 -0.0195417 -0.007012329 0.31300026 0.22832204
0.0006764275 0.100374475 -0.0072538164 -0.030463232 -0.053536113 -0.06583096 0.009636721 0.032750063

fc4.bias f4 [30]
00000000: 31f4 3c3d 3c3d 5ebe 1d24 d63e 91cb 05bf
00000010: 200f 96be c7c6 343e 5410 f4be 739a 3cbd
00000020: c8db 8f3e e359 bf3e 9a6a a43d 250e ffbc
00000030: 17e8 d0bd ce3c e9bd ba4e 95bd e334 e3bc
00000040: ebe6 58bd 0e0c 43bd d806 60be 1fdf b43d
00000050: a2d1 813c 3773 cb3c defd d83d 95ea 79bd
00000060: f3dc 4e3e 50f8 01bc 8e3f 60bd 49f5 c7bd
00000070: e1d6 94bc b0fb 6cbf
0.046131317 -0.21703047 0.41824427 -0.5226374 -0.29308414 0.17653953 -0.47668707 -0.04604573
0.28097367 0.37373266 0.08028145 -0.031134674 -0.102005176 -0.11388551 -0.072904065 -0.02773518
-0.052954596 -0.047618918 -0.2187761 0.088316195 0.015847031 0.024835212 0.10595296 -0.06101473
0.20201473 -0.0079327375 -0.05474811 -0.09763581 -0.018168868 -0.92571545
